use/neuro-symbolic/pipeline/assets/checkpoints/model_fingermovements_1_seed_3.pt (torch, 44559 bytes, 26 tensors)

encoder.layers.0.weight_ih_l0 f4 [56, 28]
00000000: 1831 383e cd3c 21be 55ec f83d a970 0a3e
00000010: 516e 58bd a749 85bd fb96 48be b532 d4bd
00000020: a867 d33d 48ed 93bd 334f a13d f366 15be
00000030: 741e 35bd d97d e63d e2c6 373e 5c46 8a3e
00000040: 0d85 2c3e ccf3 203e 9c16 3f3e e3a9 26bd
00000050: 5f40 a3bd 154e cc3d 408e 22be b02e 3abe
00000060: 3fa4 ecbc 7df3 35be 23bd bcbd 4f49 87bd
00000070: 62d3 963e dacd 483e eea9 cabd 8270 2c3e
00000080: 1109 913e 53b0 063e 9bc6 3ebd 957a e9bd
00000090: 150b 23bc 7c36 da3d a791 e7bd f71a 23be
000000a0: ce12 45be 0322 db3c 4d35 893e 48f6 fabd
000000b0: 1eb1 94bc b63d e63c c609 f83b 96ed 043e
000000c0: fb16 b63c 3499 9abd 9310 563c c39e 13bd
000000d0: fc2e bebd d91c 763c 4d06 b93d 1418 f9bd
000000e0: 5bd5 1cbd 03df c43d 7a56 55be e215 0dbe
000000f0: f06b 673e 70d9 0b3d cf74 d73c d51f 633d
00000100: 1bc4 af3d c337 12bc 0802 60bc d127 693d
00000110: 55b8 bdbd 401f 073c da9d 243d a416 933e
00000120: c0e5 ebbd d9e9 38bd 2d59 863e ad13 25be
00000130: e284 27be c52a b8bd e380 68be ade3 85be
00000140: 50af e93d 3644 6f3e 14c5 173e 0a08 c43d
00000150: 0012 833e 7834 8cbd 7408 8e3e fc62 533e
00000160: babe 993e 9313 f93d 8396 10be 59c0 bdbd
00000170: c512 553e bb4b 613d c4f8 7f3e 804d 903d
00000180: b0c8 9f3e d9f4 3f3e fc85 043e fde7 b23e
00000190: 2617 243d a5a8 483e 798b b4bd daa2 97bb
000001a0: c022 59be 8e7f 203e e76e 9dbd c348 8e3e
000001b0: 6b2d e5bd af4d 17bd 6c83 183d b037 e9bd
000001c0: ecb3 89bc 60ae e1bd fff2 073e a0f2 023e
000001d0: f685 a23e 4ffc 7a3d cb89 3ebe 8a98 d73d
000001e0: 4667 793e 5197 ca3d f09d 783e b69b 0dbd
000001f0: 002c bdbd a0c9 02be e6a0 ce3d a631 683e
00000200: 167b 0fbe 35b6 5a3e ed06 04bd b7ae b9bd
00000210: 8f06 83be 006d 86be b3d2 cebd 976c 3bbe
00000220: 5a22 da3d b6b5 4dbe 55e2 463e 72a4 53be
00000230: 18f0 34bd 59d2 353e d32d 513c 9bf8 553e
00000240: 38b3 7abe 310b 653d a9c0 7a3e 4861 603e
00000250: 51fb 99bd a6e5 823e 536c 433e 44b9 7cbe
00000260: 482f 41be 095d 58be 803e 6ebe 40dc 8b3e
00000270: 174f 583d 7abf 063e e6a1 5a3e 2070 ac3d
00000280: aa89 e7bd fe8a 23be 7569 2e3c 5bae 13be
00000290: bde5 f93c 9009 043c b238 49bc 138f 5fbe
000002a0: 0942 b23d 213b 843e 4299 70bc 89ac 4abd
000002b0: a8bd 573c e547 703e fca6 c4bd 20f3 9e3e
000002c0: 3cfd 7a3d 4bc8 5c3e d168 c8bd 9ae6 28be
000002d0: 39c1 4e3c ecac 7f3e eb60 1b3e ab13 5b3e
000002e0: 7097 4dbd 90af 7abd 844a 75bc f79f 09bd
000002f0: 010d cc3d 7cc2 4bbe 8d64 233e 3423 9a3d
00000300: 22fe 7bbd 11a6 bdbd fb13 8a3d ff3b 723e
00000310: 9109 523e feb1 0c3e 7d1c a1be fd00 d8bd
00000320: ca11 ffbc 5c4f 52be 866a fdbd c086 083e
00000330: a1f1 843c 59df bcbc f3b8 323d 16b9 e73d
00000340: a763 cebd 87ea d03c 9708 e2bd 8465 1abe
00000350: 9382 393c 66cd 5e3e 6e84 6a3c 85ed b7bc
00000360: d706 a4bd a861 053e ff68 883d 4cf8 82be
00000370: 79da a1be 4c21 87be d1fc ea3c ac9a 50bd
00000380: bfeb 30bd 01d9 67be cf3c 7ebd 0c82 7bbe
00000390: 585f 2f3e b686 6dbd cc0e cbbc d907 dc3d
000003a0: fa84 97bd fa30 f23d 23d9 e6bd 70a8 a33c
000003b0: 80f9 463e 1f78 3dbe 10b2 013d 6b73 5ebe
000003c0: 49a2 77be 6b88 9ebd e40d 1bbe d632 9b3d
000003d0: 29cb 0a3e e9f9 733d 2fd4 0fbe 77ea efbd
000003e0: 3ca0 b63b c400 bdbd 742f a8bc 1996 88be
000003f0: 4575 ef3d 5fd3 8ebc 1518 273d 6d30 323e
0.17987478 -0.1574585 0.12154452 0.13519539 -0.05283958 -0.06508189 -0.19588844 -0.10361234
0.10322505 -0.07222992 0.07876434 -0.14590053 -0.044218495 0.11254472 0.17946962 0.27006805
0.1684763 0.15718001 0.18660969 -0.04068936 -0.07971262 0.099758305 -0.15874577 -0.18181872
-0.028886912 -0.17768665 -0.092157625 -0.066057794 0.29458147 0.19609776 -0.09895693 0.16839793
0.2832723 0.131532 -0.046576124 -0.11400334 -0.009951373 0.10654923 -0.11307078 -0.15928255
-0.19245455 0.026749616 0.26798478 -0.12254006 -0.018150862 0.028105598 0.0075695245 0.12981257
0.022227755 -0.075487524 0.013065475 -0.03604008 -0.09286305 0.015021526 0.09034405 -0.12162796
-0.03828941 0.096128486 -0.2083377 -0.13777879 0.22599769 0.03414291 0.026300816 0.05545028
0.08582326 -0.008924427 -0.013672359 0.056922738 -0.09263674 0.008247197 0.0401896 0.2872821
-0.11518431 -0.04514489 0.2623991 -0.16120787 -0.16359285 -0.08992533 -0.22705416 -0.26150265
0.11410391 0.23365864 0.14821273 0.09571846 0.2559967 -0.06845945 0.27740824 0.20643228
0.30028325 0.121619366 -0.14119916 -0.09265203 0.20807941 0.055003863 0.2499724 0.07046032
0.312078 0.18745746 0.12941736 0.34942618 0.04006114 0.19595583 -0.08815665 -0.0046275677
-0.21204662 0.15673658 -0.076871686 0.27789888 -0.111903034 -0.03693932 0.03723471 -0.11387575
-0.016809426 -0.110195875 0.1327629 0.12787867 0.3174283 0.061275776 -0.18607251 0.105271414
0.24355802 0.098921426 0.24278998 -0.034572326 -0.09236908 -0.12772226 0.10089283 0.2267519
-0.14011797 0.21358569 -0.032233167 -0.09066527 -0.2559094 -0.26255035 -0.100987814 -0.18303142
0.10651083 -0.20088848 0.19422276 -0.206682 -0.044174284 0.17756023 0.012767273 0.20895617
-0.24482429 0.055918876 0.24487557 0.2191211 -0.07518638 0.25565833 0.19084291 -0.24680048
-0.18865693 -0.2112924 -0.2326603 0.27316475 0.0528098 0.1315898 0.21350822 0.08419824
-0.11305554 -0.1597099 0.01064526 -0.1442198 0.030505056 0.0080589205 -0.012281584 -0.21831922
0.087040015 0.25826362 -0.014684977 -0.04948095 0.013167776 0.23464926 -0.09602162 0.31044865
0.06127666 0.2156078 -0.09785617 -0.16494218 0.01261931 0.24968308 0.1517369 0.21394221
-0.05019325 -0.061202586 -0.014971379 -0.03359982 0.09963418 -0.19898409 0.15956326 0.07526246
-0.061521657 -0.0926019 0.06742092 0.23655699 0.20511462 0.13739774 -0.31467047 -0.105470635
-0.031136412 -0.20538086 -0.12373833 0.13332653 0.016228499 -0.02305572 0.043633413 0.11314599
-0.10077601 0.025502456 -0.11036795 -0.15077788 0.011322635 0.21758041 0.0143138 -0.022452125
-0.08009117 0.13025534 0.066606514 -0.2558006 -0.31611994 -0.2639259 0.028685005 -0.050928757
-0.043193575 -0.22641374 -0.06206971 -0.24561328 0.17126215 -0.0579898 -0.02478733 0.10743684
-0.0739841 0.11825748 -0.11271884 0.019977778 0.19431114 -0.18502854 0.031663954 -0.21723716
-0.24183 -0.077408634 -0.15142018 0.075780556 0.13554062 0.059564505 -0.14045785 -0.117146425
0.0055733006 -0.09228662 -0.02053044 -0.26677015 0.11692289 -0.017434774 0.04079445 0.17401285

encoder.layers.0.weight_hh_l0 f4 [56, 14]
00000000: 0941 b73d 69e3 1dbe 578c 1cbe 9dff 02be
00000010: b4c3 923e ee7c cd3d f8f1 203d 52fa 0d3e
00000020: dcf3 71be fb92 443e 3b09 3abe 3c88 e6bd
00000030: 9e89 33be 4214 3c3e 99b5 52be bec6 5d3d
00000040: 78b7 51be 12f0 8cbe 9bf2 493e a45a 713e
00000050: b5b8 e5bd 28a7 d13d fe60 c43d bfbf 85be
00000060: 5853 06be 27eb 43be b9d6 583e beae a7bd
00000070: ec30 793d 6c49 f8bd 3762 5a3b 32f0 463e
00000080: 1cc4 49be 2e56 34bc ed57 c13d 36f4 fdbc
00000090: c733 23be 2468 da3d 996a 40be 16c3 623c
000000a0: 8493 933e 8cdc 523e 7887 73be c32e 3b3e
000000b0: 2e5c 47be 2662 503e 616c cdbd bfaf fd3d
000000c0: bdaa a0bd f3ee 863e da23 91be 02f4 2abe
000000d0: fb8c 45bb ce91 68be 2bd7 993c 588b 463e
000000e0: b7e4 643d 30d7 24be e813 cdbd 340d 94be
000000f0: 4730 4abe e4c6 213c 6809 543e 2a51 313d
00000100: c8aa 853e e712 793d 5599 aabc 387d 66bc
00000110: beab b7bd 2339 40be 869f 1b3e 54d0 723e
00000120: 069f 82be c710 1c3e 60f5 8d3d 2567 283e
00000130: a400 853e daf5 1c3e a427 87be ed5b 0c3e
00000140: 81fe 263e 56cf 0a3e 8c34 5a3d c020 2cbe
00000150: 00c8 10be d278 4d3e 2761 9c3e cc20 93be
00000160: 5f5c 663e 60d3 aabe 7bfc 30be ad32 ae3e
00000170: b987 d73d 6c74 5ebe f6ae 68be 7f35 86bc
00000180: 9c24 7f3d 7b23 033e 7aa3 cc3d 8a23 35be
00000190: dd6d 493e 9de6 ddbd a57b 55bd 8f83 59bd
000001a0: 534c e2bd d5a3 96be f428 303e b628 85be
000001b0: 4a49 033e c194 fb3d a189 fd3d d4d6 0dbe
000001c0: a072 f03d d76b d23d 4442 8dbd ffd6 4bbe
000001d0: 2971 84be bacc b73d 882a e4bd 5a21 06bc
000001e0: 4de3 d8bd d51a 893e 53ef c43d 45ad 853e
000001f0: 156d 8dba 987d 8abd c741 92be e8a5 b23e
00000200: 61a6 b8bd f391 2dbe bf00 8b3e 7da4 ca3d
00000210: 6d90 4d3e e876 04bd cc2b 0bbe a047 e4bd
00000220: 43fb 043e 3a7f 043e 7c58 a4bd bc5b 893d
00000230: c059 973c 11b8 6c3e 8788 a5bd 7269 0abd
00000240: 371c 843e b0d9 503e ac65 95bd 207f 273e
00000250: fc49 443e 6723 223e bb78 4cbd c56c f7bd
00000260: 61d5 2a3e 2923 933e 409f 873e c1d7 12be
00000270: 1e61 e23d 7d6f 533c 5117 80bd f78a 693e
00000280: 8f39 403e 6438 82be 21ac 4c3e 602b 89be
00000290: 29e6 f73d 61ef 5d3e cd9a 533e 5988 bfbd
000002a0: 1eec aa3d a550 983e cbb7 1c3e 9dfb 373d
000002b0: ed0e 8f3e 6461 1cbc d1f3 55be aee3 833e
000002c0: 3606 943d 1214 acbe 751e c63d 3376 883e
000002d0: 3409 48be ac77 2cbe 576a c6bd ca7a 9ebd
000002e0: c8a9 59bd afd5 e9bd 687a aebd c8be f73d
000002f0: 8363 b63d 2014 c6bc f931 29be 2ae7 fcbd
00000300: e949 a2bd b664 20be 464f 3dbe 9a23 6e3e
00000310: 7872 dcbd 46df 5bbe cbad 293c bbdd 60bc
00000320: d81a dbbd e46a 5d3e b99f a4be ce7d 263e
00000330: 78b0 a8bd e4c8 0cbe 5525 36be 226d 8ebd
00000340: 2084 463e ef57 b93d f82a 1cbe d329 9b3d
00000350: 5acf 70be 798d 34be aa63 3d3a e737 81be
00000360: 23a6 a4bd 827a 45be ffb6 3c3e 15c0 2a3e
00000370: c077 d3bd 5247 77be 979e 3ebe b9e9 6cbd
00000380: 978e 373e f1ef 0ebe d663 563e e0e6 99be
00000390: 70b0 523c 6acb 57be 9cb2 f7bd 1664 7dbe
000003a0: 964a 4d3e 5707 133e 2918 3fbe 68b8 2b3e
000003b0: 44f3 c2bd 7d9c 66be 0747 adbd c0af 6fbd
000003c0: 7e34 3dbe 2e6f 3d3e 0b7c 9d3e d0c3 a93d
000003d0: 559f a1be 0777 ac3d f8a2 633d 6bdd 9f3e
000003e0: 4f3c 803e 6e9c fb3c f986 93be decd a4bd
000003f0: 967d 793d 2cef 01be e8f3 473e be00 52be
0.08947951 -0.15418781 -0.1528791 -0.12792821 0.28664935 0.10033594 0.03929326 0.13865021
-0.23628181 0.19196694 -0.18167584 -0.112564534 -0.17532966 0.18367103 -0.20577087 0.054144613
-0.20480144 -0.2752691 0.19721453 0.23569733 -0.11216871 0.10236961 0.09588812 -0.26122853
-0.1311773 -0.19132672 0.2117566 -0.08187626 0.06083767 -0.12123379 0.00333227 0.19427565
-0.19703716 -0.011006875 0.09440599 -0.031000238 -0.1593772 0.106643945 -0.18790664 0.013840457
0.28823483 0.20591944 -0.23782146 0.18279557 -0.19468758 0.2034994 -0.10030437 0.123870365
-0.07845066 0.2635418 -0.28347665 -0.16694644 -0.0030143845 -0.2271187 0.018779358 0.19389093
0.055882182 -0.16097713 -0.100135624 -0.28916323 -0.19744979 0.009874079 0.20706713 0.043290295
0.26106858 0.060809042 -0.020825068 -0.01406794 -0.08968304 -0.18771796 0.15197572 0.23712283
-0.2551195 0.15240775 0.06931567 0.16445597 0.2597705 0.1532816 -0.2639743 0.13706942
0.16308023 0.13555655 0.05327277 -0.16809368 -0.14138794 0.2006562 0.3054287 -0.2873596
0.22496174 -0.3336439 -0.17283814 0.34023038 0.10523934 -0.21724099 -0.22722992 -0.01638293
0.062290773 0.12806503 0.09992118 -0.17689338 0.19670816 -0.108350016 -0.05211987 -0.05310398
-0.11049714 -0.2942187 0.17203122 -0.26007622 0.12820926 0.12284232 0.12379766 -0.13851482
0.11740613 0.10274475 -0.06897405 -0.19906233 -0.25867584 0.08974595 -0.11140925 -0.008186663
-0.10590229 0.26778284 0.0961596 0.26108757 -0.0010789955 -0.06762236 -0.2856581 0.348922
-0.09016109 -0.16950206 0.27149007 0.09894655 0.20074625 -0.03233996 -0.13590926 -0.11146474
0.12986474 0.12939158 -0.080246896 0.0670695 0.018475413 0.23117091 -0.08082681 -0.033791967
0.25802776 0.20395541 -0.07294783 0.16357088 0.19168848 0.15833817 -0.049919825 -0.12081293
0.1668296 0.28737763 0.26488686 -0.14340116 0.1105368 0.012904999 -0.06254447 0.22806917
0.18771957 -0.25433648 0.19987537 -0.26790905 0.121044464 0.21673347 0.2066452 -0.09352178
0.08345817 0.29749027 0.15304486 0.04491769 0.27941075 -0.009544704 -0.2089379 0.25759643
0.07227747 -0.33609062 0.09673778 0.2665268 -0.1953476 -0.16842526 -0.096882515 -0.07738264
-0.05314043 -0.1141771 -0.08519441 0.120969355 0.08905699 -0.024179518 -0.1652297 -0.123487785
-0.079242535 -0.15663418 -0.18487272 0.23255768 -0.10764021 -0.21471891 0.010356377 -0.01372474
-0.106984794 0.21622807 -0.3215311 0.16258928 -0.08236784 -0.13748509 -0.17787679 -0.06954409
0.19386339 0.09049975 -0.15250766 0.07576337 -0.23516598 -0.17632093 0.0007224629 -0.25237963
-0.080395006 -0.19285014 0.18429182 0.16674836 -0.10325575 -0.241483 -0.18615185 -0.057840083
0.17925487 -0.13958718 0.20936522 -0.30058956 0.012859449 -0.2107369 -0.12094614 -0.24745211
0.20047984 0.14358269 -0.1866156 0.16769564 -0.095190555 -0.22520633 -0.08460813 -0.058517218
-0.18477055 0.18499443 0.307587 0.082893014 -0.31566873 0.0842114 0.05557534 0.31223616
0.25046012 0.03071424 -0.28813913 -0.080470785 0.060910784 -0.12688893 0.19526637 -0.20508096

encoder.layers.0.bias_ih_l0 f4 [56]
00000000: a221 493e 02da 783d bc18 fbbd 432e 29be
00000010: 1516 84bd 8b08 873d 9786 8b3e a701 9cbd
00000020: 42eb 843e 3753 0c3e e312 7abe 1fef 3c3d
00000030: fa84 6e3e 8a55 50be 5a89 71be b5d7 953d
00000040: 8c67 84bd e69e 51be 1048 86bb 596d 8b3e
00000050: ad35 193e 3bcf 423e 6d3d 81be 553b 7bbd
00000060: 61c6 f33c 3c40 a03e c671 713e 5f4f 3abe
00000070: b3a3 34be 2f27 8abd c5dd e53d 55ce c6bd
00000080: 78aa 963d 921e 863d 896b 713e 3cb8 88be
00000090: 3a5c 323e 14b6 863e 7272 3fbe 16fc 5e3e
000000a0: eb60 25be 5d13 993d 0617 abbd 5378 243e
000000b0: 8328 903e 6a30 903e 932d 9c3e 3641 7ebb
000000c0: 0c5d 133d 820a 943e c2c9 a33e 8d92 463e
000000d0: 1e3e 983d a785 013e 9e79 863e de02 2cbe
0.19641736 0.060754783 -0.12260577 -0.16521554 -0.06449524 0.06593426 0.2725112 -0.07617503
0.25960737 0.13703619 -0.24421267 0.04612648 0.23292914 -0.2034513 -0.23587552 0.073165335
-0.064650625 -0.20470771 -0.004097946 0.27231863 0.14961882 0.19024365 -0.25242177 -0.06133588
0.02975768 0.31299007 0.23578557 -0.1819434 -0.17640571 -0.06745755 0.1122394 -0.097073235
0.07356733 0.065487996 0.23576178 -0.2670306 0.17417994 0.2631079 -0.18696001 0.2177585
-0.16150253 0.074743964 -0.08354001 0.16061525 0.28155908 0.28161937 0.3050352 -0.0038796193
0.03597741 0.28914267 0.31989866 0.19391842 0.07433723 0.1264864 0.26264662 -0.16797969

encoder.layers.0.bias_hh_l0 f4 [56]
00000000: ad28 6b3e b5e4 85bc b2ed ec39 9982 bc3d
00000010: 70dc 3c3e d0b7 31be f67e 803e a059 2fbe
00000020: 70d6 b03d 50af 5c3e 5d2f 00bd f086 8c3e
00000030: ec87 443e 2d9b 9f3d bdab ad3d b277 3d3e
00000040: a350 033d 7974 3c3e 73a6 633e 5062 003d
00000050: 44d7 32be 95e3 263e 91c4 413d cbff 2bbe
00000060: 1b7c 433e 4f23 733e 80aa 463e 6b0a a13e
00000070: 557b 51be e176 19bc 464b 6b3e 317b 8dbe
00000080: e3dc f93c 5991 73be e3a9 663d 892e 7abd
00000090: bab1 34be 7899 cdbd c06b 2bbe 8b50 8a3e
000000a0: fda6 413e 90c4 35be 71a9 4a3d fbaf a7bc
000000b0: 64a7 9d3e 1028 aa3e d861 813e 1e44 33be
000000c0: 267c 853d 2d16 26bd caec 423e 6ec8 cb3d
000000d0: 0691 f33d aae0 273d 0dc1 623b 7f26 353e
0.22964735 -0.016344408 0.00045190525 0.09204597 0.18443465 -0.17355275 0.25096864 -0.17124033
0.08634651 0.21551251 -0.03129517 0.274467 0.19192475 0.07793269 0.08480022 0.18502691
0.032059323 0.18403806 0.22231464 0.031343758 -0.1746493 0.16297753 0.0473066 -0.16796796
0.19090311 0.23743938 0.19400978 0.3145326 -0.20457204 -0.009366722 0.22977933 -0.2763305
0.030500835 -0.23785914 0.05631436 -0.061079536 -0.17645922 -0.100390375 -0.16740322 0.27014574
0.18911357 -0.17750764 0.049478 -0.020469656 0.3079177 0.3323369 0.2526996 -0.17506453
0.0651782 -0.040548492 0.1903564 0.09950338 0.118928954 0.04098574 0.003459993 0.17690466

encoder.layers.1.weight_ih_l0 f4 [28, 14]
00000000: 0047 b93d 23d4 21be 0364 55be cb36 3c3e
00000010: 9ce8 01bf f129 26be ad08 523d d359 4ebe
00000020: d15e 35be 3c7c 88be feff 98bc c9a2 6dbd
00000030: c2c3 ce3e f405 333d 8140 623e 8f84 06be
00000040: bb14 a13e 073e a0bd 3a22 d53d 0d34 9f3d
00000050: 0526 973e ae19 47be 84ec a13d f345 8dbb
00000060: 498b 9cbe 595e 8b3d 476c 33be 4804 dbbd
00000070: 24bf 45be 3d84 10be 67f1 d03e ca75 00be
00000080: 7eb8 d6be 7af3 99bd e6da 123e a66e 8abe
00000090: 45a5 e4bb d121 60be 45f7 193e 467d f2bd
000000a0: 3c3b 093f c998 3c3e 9338 063d 3449 b33e
000000b0: 660e ad3e 8af6 6fbe 3959 a1bc cc9d b3be
000000c0: a3a1 cf3e b65f 44bc 0f68 d13e a50a 003e
000000d0: b3c7 97be 4d5d 0b3e 3c95 d03e 41f3 9abe
000000e0: 5b88 0cbf 602f 05be f540 0c3f 7794 03bf
000000f0: 63ac 52be 635c a2bd a2c5 43be 78af 69bd
00000100: 2cae 11be 2f78 44bd 41f3 5b3d 6d11 023f
00000110: 9f32 d93e bd02 03bf c7a3 b53b 6716 4f3d
00000120: ed4b 203e 199e cbbe e6de a83d 6afb 02bf
00000130: de9e babd 2a75 8cbe dd7d babd 8b38 fc3d
00000140: ed17 5dbe 5a76 58bc 8d1e c5bd 4c45 dfbe
00000150: ef77 52be cffa 1e3e 91c1 9e3e aad4 98be
00000160: 9138 8abd 11c6 f7be cbfb 473e 1140 ba3c
00000170: 500b 8a3c e11c bfbe 43e3 7bbd 281c 0c3f
00000180: a89f 3e3e a6cc 453c bd42 9abe 53ff 33be
00000190: dfb7 383d e487 5fbe ad51 8bbe 0331 6b3d
000001a0: 5887 1cbe feef 4c3e 60b1 7b3e 02f1 8ebe
000001b0: 0530 6d3e d17d c73e 7d30 663c 2916 b5be
000001c0: 3c53 5b3e 7c67 4a3e 44ad 32be 9d43 8e3d
000001d0: 3651 cdbd ee05 183e 645a 95bc 0b5d 2dbe
000001e0: 988a d23e 4fb7 c3be c1eb dbbc 6a65 ba3e
000001f0: d0a1 2dbe 45fc a6be d7d4 f43d 3559 f23e
00000200: ae94 4cbe 46b3 ebbe bc3d 00bd e2f6 e4be
00000210: 0f12 19be 85b7 03bf 4eba c03e ab37 9ebe
00000220: 261a 3fbe 930d d8bd a057 c33c 1d5b 39be
00000230: 26aa 8abd e21a 253e 6a6d 0cbe 9c75 113e
00000240: 8c45 b3be 1090 b93e 859b 75be fe72 ba3d
00000250: f613 9b3e 927a 2c3e 32ed 81be 9d0b 8c3e
00000260: 1472 563c 351e 643e 8958 91be 5677 833e
00000270: aeb7 903d b31a f0be 1839 0cbe 1761 11be
00000280: a3bf 23be 9127 9abe b301 8abe 0ccb e4bc
00000290: 034b cbbe 5ed7 87bd 82cd ebbd 2c86 f8be
000002a0: 9924 27be 2a46 a63e aec9 00be f264 f4be
000002b0: 8ac5 003e c083 1abe be01 f63e ec8f 743e
000002c0: 00e0 2e3e 523e 79be d1b7 883e 3cd6 02be
000002d0: 8979 573c f1f2 473e 4e7d 14be d9a9 913d
000002e0: 7f83 b53c 99df 593e 4482 8fbe acaa 9fbe
000002f0: e935 d5bc 9cf5 f1be 0346 66be 0a97 11be
00000300: ecf0 ee3c aa8a 633e 314e 403c f0ae 363e
00000310: e40f 17bd 6444 b03e dcd5 e73e 3c71 74be
00000320: b02b c2be c868 b23d f2f2 ec3e a98e 2b3e
00000330: e045 93be b40d 333d 06a5 923e a013 d73e
00000340: 9adf bcbd dbe9 13be 1e48 cf3e ca35 40be
00000350: 536b 91be 8f20 813d a006 c93e 3e1c e43e
00000360: 4525 cdbe c012 d23e c024 683e ad11 403b
00000370: 5cd6 103e af1c f1be cc33 0abe 6dcd f73e
00000380: b978 adbe 0017 c73e a232 8e3e beaa bbbe
00000390: 70c8 993d 28dc a5be 4232 81bd 4f53 063f
000003a0: 9f1a 0b3e 4812 f9be 3c92 8f3e a16f 733b
000003b0: c85e 1dbd db7b 15be d2e4 183e 4c8a 01bf
000003c0: 216a dcbe e67b ca3e 5fbc e5be 5354 bd3e
000003d0: e7b3 87be e5a3 01bf c640 a63d 7dc5 d73e
000003e0: 59e1 ccbe ed62 9ebe 7a4b febe 231d ebbe
000003f0: cc84 bbbe a907 ef3e c888 333d 8acd 1ebe
0.09046745 -0.1580358 -0.20838933 0.18380277 -0.5074556 -0.16226937 0.051277805 -0.20151453
-0.17711951 -0.26657283 -0.018676754 -0.058016572 0.40383726 0.04370685 0.22094919 -0.13136505
0.3146113 -0.07824331 0.10406919 0.077736 0.29521194 -0.1944339 0.0790644 -0.004311317
-0.30575016 0.06805105 -0.17521773 -0.10694176 -0.19311196 -0.14112945 0.40809175 -0.12544933
-0.4193763 -0.075171426 0.14341316 -0.27037543 -0.0069777095 -0.218879 0.15035732 -0.118403
0.5360601 0.18417658 0.032768797 0.35016787 0.33800048 -0.23433891 -0.019695865 -0.35081327
0.40553007 -0.01198571 0.40899703 0.1250406 -0.29644546 0.1360981 0.40738857 -0.30263713
-0.5489556 -0.13006353 0.54786617 -0.51398414 -0.20573573 -0.079277776 -0.1911836 -0.057052106
-0.14226598 -0.04796618 0.053698782 0.5080784 0.42421433 -0.51176053 0.0055432054 0.050558474
0.15653963 -0.39769056 0.082456395 -0.5116488 -0.09112333 -0.2743314 -0.09106038 0.12315472
-0.21591158 -0.013211811 -0.09624968 -0.43607557 -0.20553564 0.15525363 0.31007054 -0.2984975
-0.067490704 -0.483933 0.19529645 0.022735627 0.016851097 -0.3732672 -0.06149603 0.54730463
0.18615592 0.012072718 -0.30129042 -0.17577867 0.04509723 -0.21829182 -0.2721075 0.057419788
-0.15286005 0.20013425 0.24579382 -0.2791825 0.23162849 0.38963178 0.014049646 -0.3536847
0.2141847 0.19766039 -0.17448908 0.0694649 -0.100252554 0.14846012 -0.018231578 -0.16930024
0.41121364 -0.3822579 -0.026845815 0.36405498 -0.16956258 -0.3261434 0.119546585 0.47333685
-0.19978592 -0.46035212 -0.031308874 -0.44719607 -0.14948295 -0.51451904 0.3764214 -0.30901846
-0.18662319 -0.10549464 0.023845494 -0.18101163 -0.067707345 0.16123536 -0.13713613 0.1420502
-0.35013998 0.36242723 -0.23985107 0.09103964 0.30288666 0.16843632 -0.25376278 0.2735261
0.013088722 0.22277148 -0.2838786 0.25676984 0.07066284 -0.4689537 -0.13693655 -0.14197193
-0.15991072 -0.30108312 -0.2695442 -0.027928852 -0.39705667 -0.06632875 -0.11513807 -0.48539865
-0.16322555 0.32475406 -0.12576935 -0.47733265 0.12575355 -0.15089321 0.48048204 0.23883027
0.17077637 -0.2434018 0.2670274 -0.12777036 0.013151535 0.19526269 -0.14500925 0.07112474
0.022157429 0.21276702 -0.28029072 -0.311849 -0.026026683 -0.47257698 -0.22487645 -0.14217773
0.029167615 0.22220865 0.011737392 0.17840171 -0.03688039 0.34427178 0.4528035 -0.2387132
-0.37923956 0.08711392 0.46279103 0.1675364 -0.28764248 0.04371424 0.28641528 0.4200716
-0.09222336 -0.14444678 0.4048471 -0.18770519 -0.28402194 0.06305038 0.39262867 0.44552797
-0.40067497 0.4102993 0.22670269 0.002930741 0.14144272 -0.47092196 -0.13496321 0.48398915
-0.33881167 0.38884735 0.27773005 -0.36653703 0.075089335 -0.32394528 -0.06308414 0.5247087
0.13584374 -0.4864676 0.28041255 0.0037145393 -0.03842047 -0.14598028 0.14931038 -0.5060165
-0.4304972 0.39547652 -0.44870278 0.36978397 -0.26504442 -0.5064071 0.08117823 0.4214286
-0.40015677 -0.3093485 -0.4966696 -0.45920667 -0.36624753 0.46685532 0.043831617 -0.15508094

encoder.layers.1.weight_hh_l0 f4 [28, 7]
00000000: fe8d 033f 75b2 b7be 05c2 9b3e 5ce8 8ebe
00000010: 6268 0abe 6f52 31be adb9 6b3e 6c21 083d
00000020: 62bb 233e f7d6 52be b796 cfbe 9226 3abd
00000030: 0d4c 4b3e a1cd 6abe 94d8 f23c f8a0 09bf
00000040: b0d1 fa3d db5c 65bd e0c3 d73e 608e 0fbe
00000050: 696c 103e 3a6e a0bd 4acb dd3d 1c45 45be
00000060: fff2 afbd 7cf8 8b3e 7b21 dbbd 60a3 c43d
00000070: e9bf 213e 05be b1bd 6bc2 06be cb3a 5f3d
00000080: 71be 213e 5a6d 513e 3a6f bbbe 3b08 153e
00000090: b75f 67be a977 b53e 71e4 2e3e 5e51 f23e
000000a0: debd 0ebd 8620 99be 4e02 4cbe 3930 183e
000000b0: 3eb1 073d 22f2 873e 08d4 513d 71ce 79bd
000000c0: fa30 8e3e acc7 a33e d8bb 14be 030a 96bd
000000d0: d77f 64be 8f18 77be 650c 67be 803a 8ebe
000000e0: f099 e93e 4e78 80bc d70a 7d3e f548 163e
000000f0: 7caf 0bbe 652c 6dbe 3f20 90bd 4af8 d63e
00000100: 065a 0bbe b5cf 91bd 6d7c dcbe 2925 5ebe
00000110: ed56 763d c1b0 7bbe 8178 aebe d8da efbd
00000120: fa98 8dbe 39a3 91bd c2ea f4bd 5b98 cb3e
00000130: 08cb 8cbe 94af 8bbe 09dd cabe 5a7f 3cbb
00000140: ef15 e2be e79c 56bd 8cf5 573c 9ee0 aabd
00000150: 056f a03d c2ed e6be ff9d c43d d4fd 08be
00000160: d955 0ebd abbc 2bbe 07dd 003d 2ec9 da3e
00000170: 79b4 adbe daee 823e 60a4 89be 6afd 1f3c
00000180: 47c1 bdbd a034 7abe 8362 a93e 9ece 8abe
00000190: e448 883e eb72 283e 479a 043f 3447 a5bd
000001a0: 68ec 213e 5161 83be 516e a83e e2dc 7d3e
000001b0: 05e1 363c 2f29 e5bd 767c f0bd f01f ac3e
000001c0: f47c e5be 045a 813d 4ded 8d3e 9f56 ebbe
000001d0: 6ed5 00bb 0351 4bbe c169 b6be 9134 633e
000001e0: 938a 9e3d 9d42 e5be 7726 d63e ef30 8ebe
000001f0: 625e 4a3e 7a82 643e 5970 7dbe e771 aebe
00000200: 58a0 223e 41ab 04bd eee0 f63e 427d efbd
00000210: c703 edbe c816 d63e 2d2d a8be e469 83bd
00000220: 6152 59bd ddf1 eebd 229f 00be 4812 033d
00000230: 5c17 ac3e 4995 84bd 8605 d4be 40c1 0fbd
00000240: 6a31 06be e87f 01be 3d5a f33e 2b28 c23e
00000250: 5380 e83d f006 af3e dde9 353e 8978 b2bc
00000260: e0de adbe 250f 3abe 7465 593e 6587 f8bd
00000270: 9107 01be a9c3 e83a d247 bf3e 5529 16bc
00000280: 83f9 37be 1ea1 6f3e 33a9 e3be e7b3 babd
00000290: 5aa3 b3be 0044 62bd 89af 36be f909 cabd
000002a0: e597 e6be 58ca 3a3e caa8 453e c346 853e
000002b0: 6d0f bcbe 321b 2dbd c9cc 9bbe dfec 653b
000002c0: e49b 05bf 835b 613e fc23 d5bd abcd 98bd
000002d0: 264e a3bd 27c7 0c3e dc9c 793e 9179 e1be
000002e0: ca5b 2abd 7716 4bbe 9aa8 9f3e 964d a0be
000002f0: f7d7 313e 12a2 62be 20d4 8a3d 9f28 c3bc
00000300: 769c e0be f427 9d3d 4a16 b2be c50d 10be
0.5138854 -0.3587834 0.30421463 -0.2791165 -0.13516381 -0.17316602 0.23020048 0.033235
0.1598945 -0.20589815 -0.40544674 -0.04544694 0.1985323 -0.22930004 0.029644288 -0.53761244
0.12247026 -0.055996757 0.42141628 -0.14019156 0.14103855 -0.07833524 0.1082979 -0.19264644
-0.0859127 0.27338016 -0.10699745 0.09601474 0.15795864 -0.086788215 -0.13160102 0.05449943
0.15795304 0.2045187 -0.36608297 0.14553921 -0.22595106 0.35442856 0.17079331 0.47327703
-0.03484904 -0.29907626 -0.19922754 0.14862145 0.033128016 0.2655192 0.0512276 -0.060987893
0.2777174 0.31988275 -0.14524782 -0.07326128 -0.22314392 -0.24130462 -0.22563322 -0.27779007
0.45625257 -0.015682366 0.24711166 0.14676268 -0.1364116 -0.23161466 -0.070374005 0.41986305
-0.1360856 -0.07119695 -0.4306368 -0.21693863 0.060141493 -0.24579145 -0.34076312 -0.11711663
-0.27655774 -0.071112104 -0.11958839 0.39764675 -0.2749865 -0.27282393 -0.3962176 -0.002876243
-0.4415736 -0.052395727 0.0131811015 -0.083436236 0.07833675 -0.4510327 0.09600448 -0.13378078
-0.03474984 -0.1677119 0.031460788 0.42731613 -0.33926752 0.25572854 -0.2688322 0.009765008
-0.0926538 -0.24434137 0.3308297 -0.2711076 0.2661811 0.16450088 0.5179791 -0.080702215
0.15812838 -0.25660184 0.32896665 0.24791291 0.011162047 -0.11189496 -0.11742489 0.33618116
-0.44821894 0.06315997 0.2772011 -0.45964524 -0.0019658464 -0.19855122 -0.3562756 0.22188021
0.07741275 -0.44777384 0.4182622 -0.27771708 0.19762567 0.22315398 -0.24749888 -0.34071276
0.15881479 -0.032389883 0.48218483 -0.11693813 -0.46291944 0.41814256 -0.32846966 -0.064166814
-0.05305708 -0.116672255 -0.12560704 0.031999856 0.33611572 -0.064737864 -0.41410464 -0.035096407
-0.13104787 -0.12646449 0.47529784 0.3792127 0.11352601 0.3418498 0.17764993 -0.021785991
-0.33959103 -0.1816984 0.21230108 -0.121351995 -0.12600543 0.0017758507 0.37359482 -0.009165128
-0.17966275 0.23401305 -0.44465026 -0.09116345 -0.35085565 -0.05524063 -0.17840399 -0.098651834
-0.4503776 0.1824125 0.19302669 0.2603055 -0.3673052 -0.042262264 -0.30429676 0.0035083813
-0.52190995 0.22007565 -0.10407254 -0.07461103 -0.0797389 0.13747846 0.24376243 -0.4403806
-0.041591443 -0.19832788 0.3118332 -0.31309193 0.1736754 -0.22132137 0.06778741 -0.02382308
-0.4386937 0.07673636 -0.3478263 -0.14067753

encoder.layers.1.bias_ih_l0 f4 [28]
00000000: c25b 413e 73cc fd3e 60a5 673e ae9c b7bd
00000010: 75c3 4c3e d54e b53e a7b9 8e3e a229 d43d
00000020: ec8a 1fbe 5fd4 ab3e 0942 bfbe 965c 86bc
00000030: 597b 703e cd3c a43d b143 513e 651f ebbe
00000040: 900b abbd d2be d23c 8ca2 e9bd 2b04 febe
00000050: 86cb e6be af96 dc3e 3703 423d 77df f03d
00000060: 9aae d9bc 2576 b4bd 87f1 423e 0ac0 993e
0.18882659 0.49570045 0.2262168 -0.08965431 0.19996436 0.35411707 0.27876016 0.10359503
-0.15580338 0.33560464 -0.37355068 -0.01640157 0.23484553 0.08019409 0.20435978 -0.4592239
-0.08351815 0.025725756 -0.114079565 -0.49612555 -0.4507715 0.43083712 0.047366347 0.117613725
-0.026572514 -0.08811597 0.19037448 0.30029327

encoder.layers.1.bias_hh_l0 f4 [28]
00000000: 52c8 993e 52b3 153e 9dc3 1dbc 1a49 df3e
00000010: 1402 8d3e 42fb ac3e 0d99 023f ae99 ca3e
00000020: 9faa 36be 009a 073e 0058 d1be e755 0a3e
00000030: 926d 4f3d 9226 fc3e e3ae 73bd f76d 50be
00000040: 0a2c b33e 5deb e13d 2b4a d83c 0e71 70be
00000050: 6d0b 8fbe f3ba 80be 01be 8ebb 437a e03d
00000060: d238 d2bc 5ef9 0d3f a668 9f3e f05a 1ebe
0.30035645 0.14619187 -0.009629157 0.4361046 0.27540648 0.33785444 0.51014787 0.39570373
-0.17838524 0.1324234 -0.4088745 0.13509332 0.050641604 0.49248177 -0.059492957 -0.20354448
0.34994537 0.1103122 0.026402554 -0.23480627 -0.27938405 -0.2514263 -0.0043561463 0.109608196
-0.02566186 0.5545863 0.31134528 -0.15464377

encoder.layers.2.weight_ih_l0 f4 [20, 7]
00000000: d72a c1bd 32e4 b7be 1369 043e 7b73 c43d
00000010: 4b55 a4bd 6d2d f5be 58a2 76be bed7 d23d
00000020: a49d 7abe 9301 13bd b8af c0be f53e a13e
00000030: 909c 1b3e 85ed 8ebe 5574 423e 2e94 66bd
00000040: 7e38 853e 562f 863e 9905 96bc 6293 27be
00000050: 7b23 3bbe 6c3c 223e a1b3 73be c1b9 ee3e
00000060: b130 9fbd 2a6b 243f 6571 07bf cc7d bbbd
00000070: b7a3 4e3e aba8 ebbe 752b ec3e ac73 01bf
00000080: aa25 053f 783b 08bf 45ed c5be 274a 963d
00000090: f102 d23d 1458 2abe 8699 b3be c57c d2bc
000000a0: 250e ffbd 80c0 c13e 0f99 e6bd bb79 ae3d
000000b0: 0de6 e73e 35ab 603e db54 92bd ce55 01bf
000000c0: 8161 f3bd 3382 983d 4e08 a7be df50 b13e
000000d0: 7f08 3d3e 4fd0 e23e f5e2 e5be 8077 0dbc
000000e0: a9ab 0dbe c985 c0bd 8012 7abe e76f efbe
000000f0: 82b4 883e 4ff5 aebe 6949 60be e0f1 45be
00000100: 5afb 1ebd fef5 033f c982 ca3b 764b 87be
00000110: 8604 f5bc 1679 693d b310 b2be a582 c7bb
00000120: e94c 10bf c9ba a73d 72a3 12bf 0926 b43d
00000130: a7f2 1b3f 4a40 fe3d 1cf3 fcbe f44c 6cbe
00000140: 12d5 91be a958 75be 0234 79be db25 74bd
00000150: 1825 063f 906b 0abe c0b4 a13e 52c3 c73d
00000160: b023 e23e 180f 363e 7e24 07bf 3db3 173e
00000170: 70d6 f5bd 8e33 743e 62dd 08bf 7d39 083e
00000180: 2063 51be 5555 90be 2c4b 38be f88b 8b3c
00000190: 0ea2 673e 5695 44bc ee53 1f3e 4eec 1cbf
000001a0: 7c31 fabe 72df 8a3e 6d96 cebe e586 813e
000001b0: 1490 a33e 56cc 623e 7a3a 4cbe 5e65 febd
000001c0: 9302 113f 5a6f 463d 1bf0 aa3d 618f 8f3e
000001d0: 0406 03be 9361 97be 02e0 f3be b51d b93e
000001e0: 4889 6cbe 4c3c 53be 3bb1 81bb 086e 3d3e
000001f0: 1f74 d8bd 00ca 7c3e 9e60 e73e 0046 d7be
00000200: 073c d33e 0154 e0bc 1693 6bbe b1af 17bd
00000210: ab3b 1ebf de17 843e 352b 18bf 9432 b0bd
00000220: e183 3ebb 98dd e33e 0dd4 c9be 7d6e 17bd
-0.09431999 -0.35916287 0.12930708 0.09592339 -0.08024081 -0.4788622 -0.24085367 0.10295056
-0.24474198 -0.035890173 -0.37634063 0.31493345 0.15196443 -0.27915588 0.1898969 -0.05629366
0.26019663 0.2620799 -0.018313216 -0.16364816 -0.18275253 0.15843362 -0.23798992 0.46626094
-0.07772959 0.6422602 -0.529074 -0.09154853 0.2017964 -0.4602712 0.46126905 -0.50567126
0.52010596 -0.5321574 -0.38657585 0.07338362 0.10254467 -0.16635162 -0.35078067 -0.02569426
-0.1245387 0.37842178 -0.11259662 0.08519312 0.45292702 0.2194031 -0.07145091 -0.5052155
-0.11883832 0.074467085 -0.32623523 0.34632012 0.18460272 0.44299552 -0.44899717 -0.008634448
-0.13835014 -0.094005175 -0.2442112 -0.46765062 0.26700217 -0.3417153 -0.21903004 -0.19330549
-0.038813926 0.5154723 0.0061801416 -0.2642476 -0.029909384 0.057000242 -0.34778365 -0.006088572
-0.56367356 0.08189923 -0.5728065 0.08796317 0.60917133 0.12414606 -0.49404228 -0.2307623
-0.28482872 -0.23959602 -0.24336246 -0.059606414 0.5240035 -0.13517594 0.31583214 0.09754051
0.44167852 0.17779195 -0.5279006 0.14814468 -0.12003791 0.23847792 -0.53462803 0.1330318
-0.2044797 -0.28190103 -0.17997426 0.017034516 0.22620413 -0.011998495 0.1555936 -0.6129807
-0.4886588 0.271236 -0.4034914 0.2529823 0.3194586 0.2214826 -0.19944182 -0.12421678
0.5664455 0.048446037 0.08346578 0.28039077 -0.12795264 -0.2956663 -0.47631842 0.36155477
-0.23099244 -0.2062847 -0.003957895 0.18499005 -0.10569023 0.24686432 0.451909 -0.42045593
0.41256735 -0.027383806 -0.23005328 -0.037032787 -0.61809796 0.2579946 -0.5944093 -0.08603397
-0.0029070305 0.44505 -0.39419594 -0.036970604

encoder.layers.2.weight_hh_l0 f4 [20, 5]
00000000: 952a 8abe 5f18 9d3e 6167 32bb 611f 0638
00000010: 4bd8 bfbd 9910 c3be eb25 093f 0bcb 0e3f
00000020: 4b23 c83e 7f58 443e bad3 f7be f077 6e3e
00000030: 2244 a4bd 4d51 603e 85da a43c 82ca 1fbe
00000040: 3d04 0c3d dcb6 21be 96c5 ac3e 30a7 09bd
00000050: ec8c 9b3e 3d10 8bbe cb5b 053f 3016 f93e
00000060: af58 1dbe bf1b 9ebd d1df deba c663 96be
00000070: 162b 47be 0a4d 9f3e 6dca 4c3e b99c d13c
00000080: 6be3 6c3e d3ff b33e 93d6 a93e d458 ffbe
00000090: 1929 a8be 346f bbbe f377 c73e ef13 9e3d
000000a0: b960 ccbe 58bf ea3e b694 d03d 5bb8 e93d
000000b0: 6ac4 5cbe aa20 b93e d7b6 0a3f e9e7 b5bd
000000c0: a2c3 bf3e 3d99 acbe dcc9 f13e eeb1 ccbd
000000d0: 1700 8ebe 5a55 67bd 28b3 ddbe da8c dbbd
000000e0: 0eed 94be c70f 5a3e f5a6 613e 2549 853e
000000f0: f7d8 a03d bdc7 c6be b2a6 a83e e799 cc3c
00000100: c532 cf3e 4fb8 d5be 4283 da3d b77c c93e
00000110: c138 f83e 85a2 f33e 5f9f 94bd 546c de3d
00000120: 8fa0 a3be 3c32 ea3e 4db6 0d3e 623c f7bd
00000130: 16b8 c23b bfa0 4fbe 9c2f 97bd e737 89be
00000140: f8f1 d8ba e42a e23e 93ad 8a3d 4039 073f
00000150: 7029 3cbe 593a 783e 3111 763b f3f6 fc3d
00000160: 4ca3 06be fc67 c2bd fcbb f63d 639a 263d
00000170: 4564 143f 6ec6 61bd c61c f23d 186d 963e
00000180: 8f99 4a3e 2f6d e7bd 61e4 773e e09e f73e
-0.26985613 0.30682656 -0.0027222263 3.1977313e-05 -0.093674265 -0.380986 0.53573483 0.5577857
0.39089426 0.19174384 -0.48403722 0.2328794 -0.08020808 0.21906014 0.02012373 -0.15604594
0.03418373 -0.15792412 0.33744496 -0.033606708 0.30380952 -0.27160826 0.5209319 0.4864974
-0.15365861 -0.07720136 -0.0017003958 -0.29372996 -0.1945003 0.31113464 0.19999094 0.025587426
0.23133628 0.35156116 0.3317152 -0.49872458 -0.32843855 -0.3660828 0.38958701 0.07718646
-0.39917544 0.4584911 0.10184614 0.11412116 -0.21559301 0.36157733 0.5418524 -0.08882124
0.37453943 -0.33710662 0.4722432 -0.09994875 -0.27734444 -0.056477882 -0.43300748 -0.10720225
-0.29087108 0.21295081 0.22036345 0.26032367 0.07853883 -0.38824263 0.32939678 0.02497573
0.40468422 -0.4174218 0.10669567 0.39352962 0.484808 0.4758493 -0.0725696 0.10860506
-0.31958434 0.4574145 0.13839073 -0.12072064 0.005942355 -0.20276164 -0.07382128 -0.26800463
-0.0016551604 0.44173348 0.06771388 0.5282173 -0.18375182 0.24241008 0.0037546868 0.12351789
-0.1314823 -0.0949249 0.12047574 0.04067458 0.579655 -0.055120878 0.11821894 0.29380107
0.1978514 -0.11300122 0.24208213 0.483634

encoder.layers.2.bias_ih_l0 f4 [20]
00000000: 1602 733e db6e 45be ceb9 83be da9d 1b3f
00000010: 1bd1 b23e c347 fe3e 3649 01be f34e 2dbe
00000020: 071a 6abe 082a db3e aef6 443e abd2 d23e
00000030: 95c9 cb3e 96cc 023f 0853 1a3f 5293 023f
00000040: 2d67 85be 73e8 0c3f 1817 a8bd 5ffe 7a3e
0.23731264 -0.1928057 -0.25727695 0.6078774 0.3492516 0.49664125 -0.12625584 -0.16924648
-0.22861491 0.42805505 0.19234726 0.41176352 0.39802232 0.51093423 0.60282946 0.5100604
-0.2605528 0.5504219 -0.0820753 0.24511097

encoder.layers.2.bias_hh_l0 f4 [20]
00000000: c7be 323e 0823 003f a5ee 5d3e 46b2 1bbe
00000010: e30c 31bd 6bca f93e 4ab8 2d3e 12f0 c53e
00000020: 7b98 133f 7710 ec3e 80bf 213e ae8b a43e
00000030: d459 b23e 905c 78bd 2999 4fbe 7ed8 5c3c
00000040: c519 4ebe 380f 163e b5bf 983e 3010 953e
0.17455588 0.50053453 0.21673067 -0.15204725 -0.04322518 0.48787245 0.16964832 0.38659722
0.5765454 0.46106312 0.15795708 0.32137817 0.34834158 -0.06063515 -0.2027327 0.01347935
-0.20127018 0.14654243 0.2983376 0.29113913

decoder.layers.0.weight_ih_l0 f4 [28, 5]
00000000: 9656 cd3d b506 bb3e 6e87 563e c59d f33e
00000010: 843d 8f3e 18b6 b6be a72d 03bd 2335 f33e
00000020: b4ab 3cbe 5d38 f53d 23a9 533d fece bd3d
00000030: c881 b23e 5703 253e c14a f33e 3b5b 06bf
00000040: 0a24 37be 99ef 23be 5836 813e 4e44 e23d
00000050: ad0f ec3d 27e4 c23e 402c 5d3e a9f5 643e
00000060: d912 c5bd 113a 6bbe c066 c63e 9717 80be
00000070: 3c82 9c3e c881 163e 4c9d 21bd 5749 ed3e
00000080: 60b5 12be f0e9 823e ed06 d83e c66c cebe
00000090: 2604 ae3e 45fd 37bd c37f 3bbe 3d3c 553e
000000a0: 4730 82bd c27b ec3e a341 59be 957b 7cbc
000000b0: e3a2 5f3e 7106 5ebe 3764 03bd d09d ff3e
000000c0: b3b0 0c3f b3aa a5bd d8ce 593d 6d8d d53d
000000d0: 733a df3e 5b55 fb3d cc23 e03e 8b7d e0be
000000e0: a577 c63e 43ea 7a3e 641c 44bd 63ca bf3e
000000f0: 5e61 acbe e066 cd3e 68d1 a3bd 6579 7a3e
00000100: b211 ce3e fd9d b5be af33 aa3e ac40 863e
00000110: 3317 30be 0637 733e cb2f 0bbe 8b07 31be
00000120: e8e5 e03e 5b27 f83e 0715 ce3e ee58 36be
00000130: 43ae 81be 1924 c43e 406e c53d 38b7 f53e
00000140: 8d89 d8bd b528 153e a6aa 26be 3a1a 0f3f
00000150: 3614 213e 6e8d e7be fa34 bf3e df66 9b3e
00000160: eb18 e63e e870 7c3e d6ff d3be 49f6 f7bc
00000170: 4d8a 5d3e a72b e13e 352e cf3e f946 823e
00000180: 8a99 fdbd 00cb 783a 0bdd 02bf 7b3c 8e3d
00000190: df4f aabe ad78 b4bd 3a8f 8d3e f57c 3dbe
000001a0: 79c5 a4bc 0ca4 93bd b720 5abe 79d0 fe3e
000001b0: e350 a3bc 7c64 4cbd 587c 86be 52da bc3e
000001c0: 844f b33e 4945 ae3e 3ff5 ebbd c971 f0be
000001d0: 55d1 b13e df88 673d 0719 333d 66c6 8cbc
000001e0: bfc7 d2be 477a 4dbd b989 873e 5d4e 273e
000001f0: 3b2d ab3e 2999 eebe 652d 343e 84cb 893e
00000200: fd62 703e f569 753e 39c3 b5be cbc5 603e
00000210: 3b57 933e b432 a7bd 508c a5bd 8f9c 813e
00000220: c6b7 8d3c dcdb 073d 602d 14bd d16a a1bd
0.100262806 0.36528555 0.209501 0.47581306 0.2797662 -0.35685802 -0.03202596 0.47501478
-0.18424875 0.11973641 0.051674973 0.09267996 0.3486464 0.16114555 0.4751797 -0.52482957
-0.17884842 -0.16009368 0.25236773 0.11048184 0.115264274 0.3806469 0.21598911 0.22359337
-0.096227355 -0.2297137 0.38750267 -0.25017998 0.3056811 0.14697945 -0.03945665 0.46345016
-0.14327002 0.25569105 0.42192784 -0.40317363 0.3398754 -0.04491927 -0.18310456 0.2082376
-0.063568644 0.4618817 -0.21216445 -0.015410324 0.2183948 -0.21682145 -0.032077994 0.4992509
0.5495712 -0.08089199 0.053175777 0.104273655 0.4359928 0.1227214 0.4377731 -0.43845782
0.38763157 0.24503426 -0.047878638 0.37459096 -0.33668035 0.4011755 -0.079989254 0.24460371
0.40247875 -0.35472098 0.33242556 0.26221216 -0.1719635 0.23751459 -0.1359245 -0.17288034
0.43925405 0.48467526 0.40250418 -0.17807361 -0.25328264 0.3830879 0.09640169 0.47991347
-0.10573111 0.1456631 -0.16276035 0.55899394 0.15730366 -0.4522509 0.37345105 0.30351922
0.44940886 0.24652445 -0.41406125 -0.030268805 0.21634789 0.43978617 0.4046494 0.25444773
-0.12382801 0.00094906986 -0.51118535 0.069451295 -0.33264062 -0.088120796 0.27648336 -0.18504699
-0.020113694 -0.07209024 -0.21301542 0.49768427 -0.01993603 -0.049900517 -0.26266742 0.36885315
0.35021603 0.34037235 -0.11521386 -0.4696181 0.3473002 0.056527015 0.04372504 -0.017184447
-0.4116802 -0.05016544 0.26472262 0.16338487 0.33432946 -0.46601227 0.17595442 0.26913083
0.23475261 0.239662 -0.35500506 0.21950452 0.2877749 -0.08163968 -0.08083403 0.25314757
0.017299544 0.03316866 -0.036176085 -0.07881702

decoder.layers.0.weight_hh_l0 f4 [28, 7]
00000000: c15f b83d 8d9d a03c 6e63 803e d8f4 d03d
00000010: e785 5a3e 78ed 7f3e 3b27 f83e 7035 833e
00000020: 2951 1cbe 6784 bdbc a067 b0ba 2127 d23e
00000030: abc4 183d b095 edbc e848 6e3e 52b3 7d3e
00000040: 09d5 bb3d 39d6 0c3d d0f0 853e 5095 5c3e
00000050: 37dc bf3d 7cd6 2b3e 5c52 55be 4b58 babd
00000060: 272b c53e 2434 f13e df39 0dbe 2c14 ad3e
00000070: 5eb5 513e 27eb 023f 0ecf 7b3b 8c03 dc3e
00000080: c98a ea3e f0f6 a2be 440f 763e d91e c63e
00000090: 77ad a13e a0fa aebd c2c6 24be 094c b7bd
000000a0: cfc0 b5be fbea 3bbe 6b17 b93e 9815 b03b
000000b0: fcb0 263e c716 e83c e31d 3f3d 99db 563e
000000c0: 47d1 e33e d3c7 58be d6e8 233d 0ecb a7bd
000000d0: 8bf3 0ebd 825c c03e 3468 83be 2a61 d03d
000000e0: 4470 ff3c 33e3 3b3d 2d82 ae3e e76e f83e
000000f0: e2a5 d93e 17c0 543e 1d86 213d 268c f7bd
00000100: 92a5 453e 4bd8 f63e b1e6 8d3e 4071 e43e
00000110: ac4d c9be 2cf6 923e 5fd8 ff3d e59e bd3d
00000120: 6eb3 043d cb26 333e 87ab 8c3e 27a3 abbe
00000130: d16d 25bd f29a a13e b7fc e83e ddbf f33e
00000140: 3e27 ec3e 97fe 18bd 93a9 713e 802a 793e
00000150: 5102 bcbd d59e 993e b335 96be e7b3 70bd
00000160: 0ab7 833e 7f2a 89be d7e8 a8bd efb5 543e
00000170: 449e 39be 8415 f13e 8a67 44be 3cb6 d53c
00000180: 6054 803e 67d4 d13e 2e3f 963e 3ce3 003b
00000190: b81c 8abe 5756 7ebe ddfd d13e 7157 753d
000001a0: ef26 be3e c0ec c33d 7dbc d73e bac2 813e
000001b0: 0f99 b83d 2d40 093e b3d7 d6be 3a07 d03e
000001c0: 7aa0 d23e 8d15 f23d 7e86 1a3e a658 953e
000001d0: 991a e43e a96d 523e b89b 8b3e 9b0f b13d
000001e0: ed0f 6d3e 351d 6f3e d10c bc3e 75d4 f63d
000001f0: f587 8a3c 6847 9ebb 4528 bc3e 581e 8dbc
00000200: 6aa1 ed3e 5a37 933d 147d 1dbe 6a30 a93e
00000210: 968a 8f3d ed60 d9be 7dd9 253e c420 bcbe
00000220: 46f4 cabe 5667 f5be c80e 55be 7fa3 b9bd
00000230: 1d63 8d3e 7c63 3e3e 5bb7 cf3e a0c2 5e3e
00000240: c829 023f 630e 56be 22f9 963e 9aef 1d3e
00000250: fc47 f23c e941 1fbe c394 bc3e 5504 3ebe
00000260: d0b8 f9bc 4a16 9b3e 572f fcbd 8b78 d33d
00000270: 907f ef3d 0645 c3bd 287d a93e de2d 94be
00000280: e96c f93d 718e 3dbe f76d 0b3f bde8 d9bd
00000290: c6f5 a33e 4c2a c2bc c771 683e 445c 443e
000002a0: 61ee b33e fe22 9bbc d0c4 93bd e6e6 2e3d
000002b0: 06b5 6fbe 0331 f9bc ceb0 ebbd adf0 443e
000002c0: c856 2bbe 0d8e 1fbe e103 f73e 12c4 603d
000002d0: 3e4b 6a3e b33e 053d 3b79 26be e1cb a73e
000002e0: dcc6 713e e8ac 433d 831c b13e 5424 debe
000002f0: e6e1 11be 6dd7 323e 8403 96bd e315 33be
00000300: 4674 d8bd 7b78 f43d 5c54 75be 45cd fd3e
0.090026386 0.019606376 0.2507586 0.1020295 0.21340142 0.24992931 0.4846743 0.25626707
-0.15265335 -0.023134423 -0.0013458617 0.41045478 0.037296932 -0.02900204 0.23269999 0.24775437
0.091714926 0.034383986 0.26160288 0.21541333 0.093681745 0.16781038 -0.20832199 -0.09098872
0.38509485 0.47110093 -0.13791607 0.33804452 0.20479342 0.51140064 0.0038422975 0.42971456
0.4580901 -0.31829023 0.24029261 0.3869541 0.31577656 -0.08543897 -0.16091445 -0.089500494
-0.35498664 -0.18351357 0.3615068 0.005373668 0.16278452 0.028331174 0.04665936 0.20982207
0.44495603 -0.21169977 0.04001697 -0.081930265 -0.03490023 0.37570578 -0.25665438 0.101747826
0.031181462 0.04587097 0.3408369 0.48522112 0.4250937 0.20776401 0.03943454 -0.12087278
0.19301441 0.48211893 0.27715066 0.44617653 -0.3931707 0.2870344 0.124924414 0.09258822
0.03239768 0.17495267 0.27474615 -0.33522913 -0.040387932 0.31563526 0.45505306 0.47607318
0.4612369 -0.03735217 0.23599844 0.24332619 -0.09180129 0.30003992 -0.29337844 -0.05876532
0.25725585 -0.26790234 -0.08247536 0.20772527 -0.1812678 0.47086728 -0.19180122 0.026087873
0.25064373 0.40982363 0.29345077 0.0019666692 -0.26975036 -0.24837624 0.41013995 0.059897844
0.3713908 0.09566641 0.42135993 0.25343877 0.090135686 0.13403387 -0.4196144 0.40630513
0.4113806 0.11820517 0.15090367 0.29169196 0.44551542 0.20549645 0.2726724 0.08645555
0.23150606 0.23350985 0.36728528 0.12052242 0.016910532 -0.0048302896 0.36749473 -0.017226383
0.46412212 0.07188292 -0.15379745 0.3304475 0.07008855 -0.4245676 0.16196246 -0.36743748
-0.3963949 -0.47930402 -0.2080642 -0.090643875 0.2761468 0.18592638 0.40569577 0.21753931
0.50845003 -0.20903926 0.29486948 0.15423432 0.02957534 -0.15552486 0.36832246 -0.1855634
-0.030483633 0.30290443 -0.12313717 0.10325726 0.116942525 -0.095346496 0.331033 -0.28941244
0.12178976 -0.18511368 0.5446467 -0.106400944 0.32023448 -0.02370181 0.22699653 0.19175822
0.35142806 -0.018937584 -0.072152734 0.04270067 -0.23408899 -0.030418878 -0.11508332 0.19232436
-0.16732323 -0.15581532 0.48245147 0.054874487 0.22880265 0.032530498 -0.16257183 0.32772735
0.23611015 0.047772318 0.34592065 -0.4338709 -0.1424633 0.17464991 -0.07324889 -0.17488818
-0.105690524 0.11937042 -0.23957962 0.4957067

decoder.layers.0.bias_ih_l0 f4 [28]
00000000: 11e9 f93e f780 cf3d f0f7 bb3e 44a6 1e3c
00000010: 9a39 f53e 76d4 2c3e 8a4b 3c3e 7951 64be
00000020: 32ce a33e a779 01be 0dc6 8c3e ce84 b43e
00000030: 7eba b13e eb3b 28be eb70 023f 2da9 b43e
00000040: 2f37 64bd 345b 0dbe 289e 2c3e 231c adbc
00000050: c1ec af3e f31c d4bd 2a73 03bd abfb 513e
00000060: abeb 2d3e 6e7e d63e 52d7 c6bd ec3c bb3e
0.48810628 0.1013202 0.367126 0.0096831955 0.4789551 0.16877922 0.18388191 -0.22296704
0.31993252 -0.12644063 0.2749485 0.35257572 0.34712595 -0.16429107 0.5095355 0.3528532
-0.05571669 -0.13804322 0.16857207 -0.02113158 0.34360316 -0.10357084 -0.03209225 0.2050616
0.16984431 0.41893333 -0.09709038 0.36569917

decoder.layers.0.bias_hh_l0 f4 [28]
00000000: 4031 d83e 244b f93e 730e d03e 9eb5 6bbe
00000010: 4563 6f3e 30fc bb3e a288 e8bd 7b26 bf3c
00000020: 6655 77be 4d1f a63e 2257 7ebe fba0 e43e
00000030: 8884 c43e edcc fbbd e861 103e 60b7 2b3d
00000040: 9591 0b3f f1e0 633e 582d f03e ae2d 75bd
00000050: 5212 1f3e d021 d33e 81bc c6bd 1206 e3bd
00000060: ce29 d23e 4256 1dbe a33e 9b3c bbd2 00be
0.42225075 0.4869014 0.40636024 -0.230185 0.23377712 0.3671584 -0.11354186 0.023333779
-0.2415367 0.32445756 -0.24837926 0.44654068 0.38382363 -0.12294946 0.14099848 0.041922927
0.54519016 0.22253777 0.46909595 -0.059858017 0.15534332 0.41236734 -0.09703923 -0.11085142
0.4104752 -0.15364936 0.018950766 -0.12580387

decoder.layers.1.weight_ih_l0 f4 [56, 7]
00000000: 89fd 223d 3017 8a3e 9202 c43d 0670 d6bd
00000010: 3c49 273e 6517 2bbe cbfa 7f3e 5c7c 9b3e
00000020: c0d0 7e3e 7938 6f3e 69c0 1e3e 6698 003e
00000030: e93e 86be f41d 1b3e 765b 173d f75d 913e
00000040: a039 3dbd 9ac2 a93e b49b 51bc 4330 2ebe
00000050: 9695 a43e 0290 903e ba39 663d 3778 0f3d
00000060: d5d1 c93e 73b1 4738 a494 6dbe c64d 14bd
00000070: 536d e93e d8f4 c73d 0e2c 1d3e 45b7 393e
00000080: d774 ea3e b532 8abe dc1e 2e3e c121 3e3e
00000090: 04c5 473d 79e3 863e 79c9 513e ba4b 163d
000000a0: 17c4 f2bd 7617 e63e bb0c d53e 347b a6bd
000000b0: d852 80bc cab4 863d 8319 fa3b afed 8dbd
000000c0: 2df1 843e d3bc 693e f31c d53e 1d3e 373e
000000d0: 918b 363e cd5c 8c3d 54ab 14be 59d8 2b3d
000000e0: 8675 423e e53b 4e3e e75a 8cbc 95fe b33d
000000f0: b6a8 4c3e a2a9 37be 1a47 e93e 09b0 c33e
00000100: a303 bd3e 030e a33e 5cda 0cbd e714 f7bd
00000110: 1ed4 42be 0364 893d 8a88 a63e af5e 4c3e
00000120: 5e94 b93e e8e5 083e 4ec9 733e e655 c3bc
00000130: cd82 8e3e 4e0a 873e daf3 8b3e 0687 f03e
00000140: 0063 e0bb 889b 33bd 0a07 ae3d 0ed0 e63e
00000150: 5d7a 7abd b02f be3e 8edc 0e3e 2eb7 febc
00000160: d03f bc3e 0886 033d 5ff1 19bd 0633 a73e
00000170: cef3 ae3e 8200 d23d 9231 82bd 8e9a e23d
00000180: df59 a1be 9aae 813e ff1b 893e 5e62 a93e
00000190: 1f68 c43e 61ca 883e 3b79 6e3d a309 77bd
000001a0: 6016 fa3d ba17 873e 3b02 9a3d 7abc dc3e
000001b0: 9460 03be 05fc 2a3d b65b 003e 35a4 c13e
000001c0: 9a19 ac3e e647 ac3e 3841 80bd d7df 9f3e
000001d0: 4157 5f3e ea8c a93d c6bd 6f3d 8e28 14bd
000001e0: fa73 c6bd a664 653e 9664 343e dbd2 b13e
000001f0: 94f6 96bd 88c4 713e bb03 3c3e 8f5e 33bd
00000200: 718c b93d f5ff 7c3e 2f62 793d 3dbc c9bd
00000210: e1f8 133e 0e34 543e ff6e 143e 49cb c63d
00000220: 5ab0 033e f85d 163e a217 5bbe 49f5 813e
00000230: a555 8cbd b20e 093d 589b 083e 7f1a c43d
00000240: c2a6 5c3e bd95 dcbd 2098 ce3d c62f 953c
00000250: f75b 893e 02a1 c23e b84a a83e 4410 c93e
00000260: 2cc2 aebe f390 b13d 6375 61bd b925 013e
00000270: 2a16 6c3e 4245 c23e 01a0 1c3e de85 86be
00000280: bf33 e93c 2b47 a93e c7a4 cc3d 9168 873c
00000290: 68ed bf3e ddfb 0a3e 79bf 4e3c 522d 7f3e
000002a0: 84bd cc3c 98a3 5dbd c81a bb3e 452b a93d
000002b0: 606e ebbc 0e51 6bbd 2ca2 533e 5dd2 753e
000002c0: 6e19 343d 738c ae3e c9ef 0e3e c2c9 a93e
000002d0: 8b1a 123e 99f7 96bd ba03 f53d 5fc5 c63e
000002e0: 6555 de3d d263 783e 02ae fc3d 3cfe 56be
000002f0: 6fd8 b03d 1dc7 933e ef8c 9e3e 67ae d93e
00000300: 9ed7 873e 48f1 693e 736c 39bd 8e88 d23e
00000310: 6f16 1abe 709f c03c d0ce 50bc 9865 27bd
00000320: 7ebe 8b3d d150 8d3d 2297 b0be e7c1 d4bb
00000330: 16d9 693c ff46 7dbe 281b 68bd b388 493d
00000340: 7cb0 d6bc edf1 a1bc 2769 d63e becf 643e
00000350: 7361 e13e ce80 ea3d 032e b83e c5d3 94bd
00000360: 5e86 263e a656 183e 82c8 413e 4e58 803e
00000370: 8598 71bd f784 923e f347 92bd a761 653d
00000380: 42e3 11be 35c7 913c 54b3 e1be 9eb5 4abe
00000390: 1f59 17bd 66ea 903e 4626 dabe c19c 443d
000003a0: b2e5 e93c ed7d d53e 6285 ce3d 14bf e43e
000003b0: 3f4c 99be ea14 3b3e c442 aa3e 442a 5bbd
000003c0: 1ed2 b5bd e862 3a3e c2bc 903e 93c0 87be
000003d0: 3403 50bd 5b65 b63e d4ec 673e 8a9a 9e3e
000003e0: 8ad2 91bd b003 ac3c 809e 94be c367 c73e
000003f0: 77e9 a9bd df3b 8cbd c498 0dbe 7839 8ebe
0.03979257 0.26970816 0.09570803 -0.104705855 0.1633653 -0.16708143 0.24998014 0.30368316
0.2488432 0.23361386 0.15503086 0.12558135 -0.26219872 0.15148145 0.03695246 0.28392002
-0.046197534 0.33156282 -0.01279347 -0.17010598 0.32145375 0.2823487 0.056207396 0.035026755
0.39417902 4.761056e-05 -0.23201233 -0.036206983 0.4559122 0.09763497 0.15348837 0.18136318
0.45792267 -0.2699181 0.1700396 0.18567564 0.048771873 0.26345423 0.20487012 0.036693312
-0.118538074 0.44939774 0.41611275 -0.08128968 -0.015664503 0.065774515 0.0076324358 -0.069301
0.25965253 0.22825937 0.4162365 0.17894788 0.17826678 0.06853638 -0.14518481 0.041954372
0.18990144 0.20140035 -0.01713319 0.08788792 0.19986233 -0.17935804 0.4556206 0.38220242
0.36916837 0.31846628 -0.03438793 -0.12064534 -0.19026229 0.06708529 0.32526046 0.19957994
0.36246008 0.13368952 0.2380726 -0.02384467 0.27834168 0.2637505 0.2733448 0.46978015
-0.006847739 -0.043849498 0.08497436 0.45080608 -0.06115185 0.37145758 0.13951322 -0.031093206
0.36767435 0.032110244 -0.037583705 0.32656115 0.34170383 0.10254003 -0.06357111 0.11064635
-0.3151388 0.25328523 0.26779172 0.3308286 0.38360688 0.26716903 0.058221083 -0.060311925
0.12211299 0.2638529 0.07519957 0.43112546 -0.1282981 0.04174425 0.12534985 0.37820593
0.33613282 0.33648604 -0.062624395 0.31225464 0.21810628 0.0827883 0.05853059 -0.03617149
-0.096900895 0.22401676 0.17616495 0.34731182 -0.0737125 0.23610127 0.18360798 -0.04379135
0.0905999 0.24707015 0.06088465 -0.09850357 0.14450409 0.20722982 0.14495467 0.09706742
0.12860242 0.14684284 -0.21395734 0.2538245 -0.06852273 0.03346128 0.13340509 0.09575366
0.21547988 -0.10770748 0.10087609 0.018211257 0.26827976 0.38013464 0.32869506 0.39270222
-0.34132516 0.08670225 -0.05504359 0.12612046 0.2305533 0.37943465 0.15295412 -0.26274008
0.028467057 0.3306211 0.09992366 0.016529353 0.37485814 0.1357264 0.012618893 0.24919632
0.024992712 -0.054111093 0.3654387 0.08260206 -0.028739154 -0.057450347 0.20667332 0.24006028
0.043969564 0.3409153 0.13958658 0.33161741 0.14267938 -0.07371444 0.119636014 0.38822457
0.108561315 0.24256828 0.12337877 -0.2099542 0.086350314 0.2886285 0.309669 0.4251587
0.2653169 0.22845948 -0.04526944 0.41119808 -0.1504762 0.023513526 -0.01274462 -0.04086837
0.06823443 0.0690018 -0.34490305 -0.0064928415 0.014272949 -0.24734114 -0.056666523 0.049202632
-0.026207201 -0.01976868 0.418771 0.22344872 0.4401966 0.11450349 0.35972604 -0.07266954
0.16262195 0.14876804 0.18924144 0.2506737 -0.058983345 0.2861707 -0.071426295 0.05600133
-0.14246848 0.017795185 -0.4408213 -0.19795844 -0.036950227 0.28303832 -0.42607325 0.048001055
0.02855191 0.41697636 0.100840345 0.4467703 -0.29940984 0.18269697 0.33254063 -0.053507105
-0.08877967 0.18201792 0.2826901 -0.2651411 -0.050784305 0.35624203 0.22648937 0.3097728
-0.07120235 0.020997852 -0.29027176 0.3894635 -0.08296483 -0.06847357 -0.13827807 -0.2777822
