use/neuro-symbolic/pipeline/assets/checkpoints/model_fingermovements_1_seed_2.pt (torch, 44559 bytes, 26 tensors)

encoder.layers.0.weight_ih_l0 f4 [56, 28]
0.22909738 0.051196318 0.2247667 -0.11298605 -0.04233651 -0.103489466 0.17639834 0.12502933
0.3256427 -0.1082093 0.15241656 -0.17664428 -0.013794963 -0.009851162 0.16986106 0.25884655
-0.10936895 0.031859618 -0.136214 0.19180605 0.184414 0.057428703 0.024348266 0.17241387
-0.08822799 0.043352503 0.059041902 0.20902571 0.23532107 -0.14064956 0.04576687 -0.03050644
0.2644925 0.15770666 -0.18962751 0.29968867 0.1333092 -0.14854509 0.16208346 0.18227534
-0.121977545 0.14324006 0.18427475 0.14200407 -0.09386354 0.0473011 0.20198624 -0.101283886
0.1857332 -0.08855401 0.15741768 -0.054353856 -0.0677538 0.04180241 0.25638306 -0.0112149
0.014412075 0.1912504 0.14237629 -0.19509555 -0.050187007 0.012111304 0.21793905 0.22637653
0.32267904 0.16457863 0.12174581 -0.037390973 0.15968676 0.12066092 -0.12451921 0.2128452
0.14226077 0.34566465 -0.08987058 -0.15025903 -0.15884645 -0.073664986 -0.09033062 -0.056450855
0.08305797 -0.15540722 0.23014042 -0.09287147 0.028370433 -0.11156477 0.06634554 -0.0109441
0.0032981103 -0.12364704 -0.13208894 0.14410824 -0.27613437 -0.20612133 -0.26530161 -0.092548326
-0.21705225 -0.034340754 -0.18811475 -0.1528138 -0.21470626 -0.094149105 -0.07917488 0.025777612
-0.20340928 -0.03922554 0.04174529 0.060955558 0.10953858 -0.061884332 -0.28857353 -0.053699955
-0.11181169 0.06969198 -0.11267792 0.09324866 0.27576262 0.14762597 -0.123429224 0.22835167
-0.16823436 -0.094386585 -0.12827444 -0.030022236 -0.007081188 -0.24986573 -0.1859554 -0.08187577
0.29152855 0.278298 0.20478952 0.072845705 0.18341781 -0.028767405 0.15115298 0.05728285
-0.09074166 -0.033362664 0.23291357 0.10057284 -0.017131908 0.08758483 0.1662571 0.012688201
0.07082422 -0.09521721 0.26254648 0.056401245 0.09151937 0.24128652 0.0068703876 -0.01968258
0.19577937 -0.17611052 0.31480974 -0.032933246 -0.022633351 0.12836829 0.029432071 0.14573067
0.15236211 -0.10719578 0.0034575013 -0.2261855 0.26550612 0.054702714 0.1535438 0.111480705
-0.049210966 -0.1725045 -0.22536637 -0.17048171 0.03420634 0.09714817 -0.17256474 -0.10474777
-0.21216352 0.19143943 0.12617403 0.02757389 -0.012750556 -0.25171116 0.061395943 0.025918225
0.010526396 -0.14492826 -0.16775057 -0.10554135 -0.13085175 -0.23399292 0.17656104 -0.0042324215
-0.26499417 -0.16193202 0.052500963 0.025555626 0.1834833 -0.018893171 -0.09863834 0.047942083
-0.0045671365 0.0014082912 -0.019078465 0.09477902 0.33074188 -0.19270183 -0.025517216 0.04389403
0.20256227 0.01218154 0.18745734 0.3173193 0.28406158 -0.14920115 -0.0090994015 -0.0015822967
-0.0010236673 0.23462807 0.07689465 -0.022891399 0.19735314 0.0057210308 -0.11306965 -0.056379106
0.12402278 0.019091474 0.106130846 0.041184217 0.24412867 0.25370497 -0.16612394 0.10465268
0.09562928 -0.2006802 -0.03718148 0.16829766 -0.20494674 0.07155593 0.11460074 0.115701504
-0.15450843 0.04075621 0.08999277 0.15100268 0.00416399 0.046997547 -0.15572621 -0.23491374
-0.07619004 -0.018061016 -0.21541736 -0.16296138 0.13595304 -0.030941883 -0.13863437 -0.13646647
00000000: 8198 6a3e 3bb3 513d 3e29 663e 3b65 e7bd
00000010: 0c69 2dbd 49f2 d3bd c4a1 343e b007 003e
00000020: a4ba a63e d69c ddbd 1613 1c3e 3de2 34be
00000030: 4504 62bc c566 21bc 0ff0 2d3e 8987 843e
00000040: d4fc dfbd 3b7f 023d af7b 0bbe ce68 443e
00000050: 06d7 3c3e 5c3a 6b3d 0476 c73c 438d 303e
00000060: e0b0 b4bd 6592 313d ecd5 713d d60a 563e
00000070: 02f8 703e 7006 10be 0b76 3b3d a4e8 f9bc
00000080: 906b 873e db7d 213e b72d 42be cb70 993e
00000090: 3582 083e 341c 18be 35f9 253e 63a6 3a3e
000000a0: 5dcf f9bd 86ad 123e 85b2 3c3e 8469 113e
000000b0: 873b c0bd ccbe 413d 7bd5 4e3e ed6d cfbd
000000c0: d830 3e3e ce5b b5bd 1a32 213e 26a2 5ebd
000000d0: 81c2 8abd 0139 2b3d a444 833e b3be 37bc
000000e0: a020 6c3c 25d7 433e 17cb 113e 21c7 47be
000000f0: e490 4dbd 7e6e 463c 6a2b 5f3e 40cf 673e
00000100: 3036 a53e 4d87 283e de55 f93d 4727 19bd
00000110: ed84 233e 131d f73d ed03 ffbd 18f4 593e
00000120: cfac 113e f5fa b03e 110e b8bd 81dd 19be
00000130: a5a8 22be abdd 96bd 43ff b8bd 0339 67bd
00000140: 4c1a aa3d 1223 1fbe eea9 6b3e 6633 bebd
00000150: 1c69 e83c 127c e4bd 2ce0 873d e24e 33bc
00000160: 1c25 583b a93a fdbd 5342 07be 1c91 133e
00000170: 7c61 8dbe 7811 53be 9dd5 87be fa89 bdbd
00000180: f242 5ebe e4a8 0cbd 27a1 40be 397b 1cbe
00000190: f5db 5bbe 3fd1 c0bd 7126 a2bd 922b d33c
000001a0: 864a 50be f6aa 20bd 1cfd 2a3d 89ac 793d
000001b0: c355 e03d 6d7a 7dbd e9bf 93be 7cf4 5bbd
000001c0: 87fd e4bd abba 8e3d aec3 e6bd 27f9 be3d
000001d0: c230 8d3e 432b 173e 76c8 fcbd 05d5 693e
000001e0: a145 2cbe c14d c1bd 605a 03be 31f1 f5bc
000001f0: 4f09 e8bb cddc 7fbe 186b 3ebe 7cae a7bd
00000200: 3b43 953e 137d 8e3e 58b4 513e 2130 953d
00000210: e1d1 3b3e 9fa9 ebbc d9c7 1a3e 6ca1 6a3d
00000220: c3d6 b9bd 4aa7 08bd e580 6e3e 22f9 cd3d
00000230: 3758 8cbc ad5f b33d 4d3f 2a3e 2ce2 4f3c
00000240: 4a0c 913d 3e01 c3bd 7e6c 863e fe04 673d
00000250: 826e bb3d d013 773e fd20 e13b 5d3d a1bc
00000260: 637a 483e 5156 34be be2e a13e 03e5 06bd
00000270: 9469 b9bc fa72 033e 871b f13c 6c3a 153e
00000280: d004 1c3e 7689 dbbd 3f97 623b 2c9d 67be
00000290: 6bf0 873e f40f 603d 963a 1d3e ff4f e43d
000002a0: 7091 49bd 05a5 30be 71c6 66be c292 2ebe
000002b0: f21b 0c3d 9ff5 c63d d0b4 30be 0086 d6bd
000002c0: 6541 59be b308 443e c433 013e a3e2 e13c
000002d0: b5e7 50bc 49e0 80be 507a 7b3d 7552 d43c
000002e0: e876 2c3c 1368 14be cec6 2bbe 1026 d8bd
000002f0: 00fe 05be d79b 6fbe 6bcc 343e 20b0 8abb
00000300: 51ad 87be 82d1 25be 400b 573d 085a d13c
00000310: 0ce3 3b3e dac5 9abc e602 cabd eb5e 443d
00000320: eba7 95bb 6996 b83a 714a 9cbc 811b c23d
00000330: 0057 a93e a153 45be 7b09 d1bc 3aca 333d
00000340: 7c6c 4f3e 1595 473c d1f4 3f3e ad77 a23e
00000350: 8570 913e 30c8 18be a815 15bc 1165 cfba
00000360: 932c 86ba 5742 703e f17a 9d3d be86 bbbc
00000370: f116 4a3e 7c77 bb3b 1091 e7bd c7ed 66bd
00000380: a8ff fd3d b965 9c3c 215b d93d c8b0 283d
00000390: defc 793e 9ee5 813e 651c 2abe 2554 d63d
000003a0: 49d9 c33d 1c7f 4dbe 9c4b 18bd 3956 2c3e
000003b0: 8fdd 51be ea8b 923d cbb3 ea3d e9f4 ec3d
000003c0: 7537 1ebe fcef 263d 214e b83d 72a0 1a3e
000003d0: 1472 883b 8080 403d b176 1fbe 3a8d 70be
000003e0: 8609 9cbd b2f4 93bc 5e96 5cbe 59df 26be
000003f0: 4637 0b3e d579 fdbc 2bf6 0dbe debd 0bbe

encoder.layers.0.weight_hh_l0 f4 [56, 14]
0.08784559 -0.19680215 0.16583337 0.15473424 0.12735242 0.0395871 -0.3151222 0.0017257553
-0.1570376 -0.19458343 -0.020296467 0.020867726 -0.031294327 0.07751609 -0.024116125 0.0094067
0.14080635 -0.2599406 -0.082584 -0.036467988 -0.18490252 0.1374413 0.2114654 0.27902403
0.1714714 0.039729904 -0.22753276 -0.0157162 -0.17285138 0.19073218 0.28755534 -0.13377611
-0.31612116 0.042575132 0.16681576 0.009614016 -0.28380096 0.003784595 -0.289513 0.29417995
-0.16717419 0.0071286377 -0.17024861 -0.092851974 0.20320137 0.12741889 -0.043686777 0.22741425
0.19188689 0.25195453 0.115602955 0.013119194 -0.24801563 0.19157681 0.13292183 -0.08222647
0.2501784 -0.1907254 -0.015008188 0.007424783 0.02111344 -0.2888812 0.17270923 -0.1702956
-0.021504661 -0.25513488 -0.1409462 0.19598696 -0.109153315 -0.12543187 -0.1519009 -0.08105025
0.012573971 0.025392815 -0.1867052 0.06426536 0.120085634 -0.29360214 -0.034796894 0.10162598
-0.31916562 0.20749299 -0.047043413 0.35137597 0.28545904 0.22728516 0.19916712 -0.25062838
0.02290625 0.13340916 -0.13231345 -0.02804151 0.13179597 -0.008844947 -0.22019581 0.015689697
-0.2521808 -0.092742346 0.1612987 0.1311097 -0.24964455 -0.014152295 -0.093275316 0.016381042
0.07540415 -0.11761401 0.14155465 -0.014365635 -0.17152272 -0.046398893 0.19637729 0.09196665
-0.07376695 0.22570036 -0.14318773 0.17343251 -0.24463008 -0.12526332 -0.107996665 0.048579507
-0.14236058 -0.09042266 0.20131908 -0.04775189 0.21002814 -0.22700876 0.2540132 -0.17345245
0.17137265 0.17141855 -0.11800544 0.25715086 0.11432506 0.028775087 -0.2654697 -0.19598469
-0.1012551 0.05294588 0.16980012 0.2651274 -0.2512594 -0.09727787 -0.2287599 -0.18623978
-0.11153989 -0.09913986 -0.15575144 -0.08975257 0.22907214 -0.20384446 -0.19406392 -0.045534614
0.051073175 -0.09904459 0.21106805 -0.2711583 0.087001756 0.24955027 -0.018258207 -0.23484457
0.1848982 -0.051949944 0.015117903 0.02230196 0.1533586 -0.2466281 0.14993219 -0.21843678
-0.02371474 0.24371658 0.34177122 0.12878628 -0.2861116 0.15854678 -0.19000193 -0.30636004
-0.17288525 -0.17962058 0.14792216 -0.04851946 0.06998986 -0.0088582635 -0.067309745 -0.07899897
-0.12903486 -0.13657618 -0.21431293 0.010013802 0.27278265 -0.0028312167 0.04557784 0.14700621
0.1482287 0.18970989 -0.123275705 0.025228802 0.049063552 -0.08986728 0.059440512 -0.23784094
-0.19265868 0.066103116 0.1224515 -0.035426073 -0.20498946 -0.1258792 -0.099360205 0.12818019
-0.25802588 -0.19392051 0.14332166 -0.14087668 -0.15079077 0.16198184 -0.0067729373 -0.08932313
0.23418581 -0.15058152 -0.09288761 -0.1350719 0.03570606 0.32487708 -0.12749532 -0.053631615
0.23880333 0.04982255 0.02693068 0.15070498 -0.054832466 -0.046932083 0.13643606 -0.16149062
-0.06503837 -0.21315558 0.19379224 0.123709835 -0.046826243 -0.0005238136 0.16331184 -0.1543347
-0.0061089396 0.34198794 0.25967854 0.0099246865 -0.024163287 -0.016624467 0.23713727 0.111235976
-0.1147924 -0.31476134 -0.12291475 -0.22539818 -0.10940462 -0.15663405 0.078884885 -0.16780262
00000000: 64e8 b33d 8186 49be 39d0 293e a772 1e3e
00000010: ac68 023e 1526 223d b257 a1be bd32 e23a
00000020: 77ce 20be e140 47be c744 a6bc cbf2 aa3c
00000030: 7b2e 00bd c1c0 9e3d 2e8f c5bc 8f1e 1a3c
00000040: 8a2f 103e ef16 85be cd21 a9bd 755f 15bd
00000050: 1657 3dbe 6abd 0c3e 638a 583e 3ddc 8e3e
00000060: 3396 2f3e d3bb 223d 59fe 68be 43bf 80bc
00000070: f4ff 30be 4c4f 433e 743a 933e 9bfc 08be
00000080: a2da a1be 4363 2e3d c0d1 2a3e 1b84 1d3c
00000090: 5c4e 91be f806 783b 0c3b 94be c19e 963e
000000a0: b62f 2bbe 5997 e93b a755 2ebe 2d29 bebd
000000b0: 0514 503e 197a 023e e8f0 32bd 48df 683e
000000c0: ff7d 443e 2f00 813e 3ec1 ec3d e3f1 563c
000000d0: cff7 7dbe b62c 443e a91c 083e 5a66 a8bd
000000e0: 6217 803e 854d 43be e7e4 75bc 984b f33b
000000f0: 18f6 ac3c 3de8 93be b0da 303e f861 2ebe
00000100: 8b2a b0bc 0aa1 82be 3354 10be ceb0 483e
00000110: c68b dfbd 3671 00be e98b 1bbe acfd a5bd
00000120: 0f03 4e3c 9804 d03c a62f 3fbe 8f9d 833d
00000130: 75ef f53d 0553 96be 3087 0ebd 4821 d03d
00000140: ad69 a3be 0b79 543e 98b0 40bd 8de7 b33e
00000150: b027 923e 71bd 683e 77f2 4b3e 5d52 80be
00000160: e3a5 bb3c 699c 083e 2d7d 07be 4fb7 e5bc
00000170: 86f5 063e 66ea 10bc 037b 61be ae87 803c
00000180: d81d 81be b3ef bdbd 7d2b 253e 9f41 063e
00000190: d2a2 7fbe 07df 67bc 2107 bfbd 8931 863c
000001a0: 7e6d 9a3d 9ddf f0bd b4f3 103e d75d 6bbc
000001b0: a7a3 2fbe c40c 3ebd 2117 493e 0359 bc3d
000001c0: 2013 97bd ff1d 673e ce9f 12be 4b98 313e
000001d0: 4f80 7abe 0745 00be 5b2d ddbd 4efb 463d
000001e0: f9c6 11be 842f b9bd 9726 4e3e 7c97 43bd
000001f0: 9e11 573e fc74 68be 050e 823e 859d 31be
00000200: 507c 2f3e 5888 2f3e d6ac f1bd 47a9 833e
00000210: 4223 ea3d bbb9 eb3c a5eb 87be 36b0 48be
00000220: d55e cfbd c7dd 583d 15e0 2d3e c7be 873e
00000230: 12a5 80be 9f39 c7bd 0940 6abe a4b5 3ebe
00000240: 076f e4bd d709 cbbd 4e7d 1fbe 32d0 b7bd
00000250: e391 6a3e 9abc 50be b1b8 46be 8182 3abd
00000260: 1b32 513d e4d7 cabd 3922 583e 43d5 8abe
00000270: fa2d b23d 1b8a 7f3e 3c92 95bc 187b 70be
00000280: f455 3d3e 77c9 54bd 15b1 773c 9ab2 b63c
00000290: 090a 1d3e 148c 7cbe d387 193e e4ad 5fbe
000002a0: 6a45 c2bc d790 793e a3fc ae3e 8de0 033e
000002b0: 387d 92be 165a 223e de8f 42be 39db 9cbe
000002c0: d508 31be 75ee 37be e878 173e 57bc 46bd
000002d0: d856 8f3d 4022 11bc b1d9 89bd 36ca a1bd
000002e0: b721 04be a0da 0bbe d974 5bbe ee10 243c
000002f0: 2baa 8b3e ef8b 39bb d4af 3a3d cc88 163e
00000300: 44c9 173e 4f43 423e f977 fcbd a2ac ce3c
00000310: ddf6 483d 560c b8bd e577 733d 938c 73be
00000320: 5148 45be 1261 873d dac7 fa3d ee1a 11bd
00000330: c2e8 51be 7ae6 00be 5d7d cbbd ab41 033e
00000340: f81b 84be 1993 46be eac2 123e fa41 10be
00000350: e568 1abe 91de 253e 84ef ddbb 0cef b6bd
00000360: 68ce 6f3e 0b32 1abe dc3b bebd 4a50 0abe
00000370: 8440 123d 4a56 a63e 228e 02be d3ac 5bbd
00000380: dc88 743e bb12 4c3d bb9d dc3c 6852 1a3e
00000390: 0298 60bd db3b 40bd e5b5 0b3e cc5d 25be
000003a0: d632 85bd 7545 5abe 7971 463e 955b fd3d
000003b0: e0cc 3fbd 8950 09ba 383b 273e ea09 1ebe
000003c0: 802d c8bb 0b19 af3e 96f4 843e 279b 223c
000003d0: 16f2 c5bc 0930 88bc 1dd4 723e b0cf e33d
000003e0: 4718 ebbd 6628 a1be baba fbbd c8ce 66be
000003f0: 880f e0bd ad64 20be 668e a13d 73d4 2bbe

encoder.layers.0.bias_ih_l0 f4 [56]
-0.13997668 0.06724128 0.22828156 0.10254079 -0.06941276 0.10132179 0.2676114 -0.09956099
0.1178238 0.008428541 0.016248511 -0.05379333 0.28471535 0.13202184 0.1851668 0.07911063
-0.08983587 -0.08519207 0.21109284 -0.084768385 0.2043383 0.09582521 -0.16415519 -0.23166588
-0.05342002 -0.14393398 -0.054822028 -0.1922188 -0.03521217 0.24595292 0.24870959 0.31567007
-0.1686395 -0.23977976 0.034766186 -0.33731288 -0.08911234 -0.0036324444 -0.073220655 -0.02894267
0.084111534 0.058720082 0.045825195 0.25856486 -0.116073266 -0.13926068 0.22999826 0.27579564
-0.09378525 0.05855931 -0.16940796 0.17054334 -0.16093412 -0.15755615 -0.20541212 0.080628596
00000000: 0c56 0fbe ccb5 893d a4c2 693e e800 d23d
00000010: 4728 8ebd cc81 cf3d 5d04 893e a2e6 cbbd
00000020: 9b4d f13d dd17 0a3c 991b 853c 6556 5cbd
00000030: 36c6 913e bc30 073e 5e9c 3d3e c104 a23d
00000040: defb b7bd 2e79 aebd b928 583e 0c9b adbd
00000050: 0f3e 513e 0240 c43d 4c18 28be d239 6dbe
00000060: f3ce 5abd 6e63 13be 108d 60bd 01d5 44be
00000070: a33a 10bd 15db 7b3e baad 7e3e 829f a13e
00000080: d5af 2cbe d388 75be fd66 0e3d 46b4 acbe
00000090: 8880 b6bd 4e0e 6ebb b6f4 95bd 2e19 edbc
000000a0: ab42 ac3d 7884 703d 33b3 3b3d 9d62 843e
000000b0: d2b7 edbd 5a9a 0ebe aa84 6b3e 1635 8d3e
000000c0: 7b12 c0bd e3db 6f3d 4879 2dbe eaa2 2e3e
000000d0: eacb 24be 6656 21be 8e57 52be 9b20 a53d

encoder.layers.0.bias_hh_l0 f4 [56]
0.368612 0.19985138 0.35606244 -0.15579267 -0.11832872 0.13085224 0.1695324 -0.2119949
0.20086715 0.14458093 -0.02937529 0.039458845 0.36372918 0.15527771 -0.1869961 0.29422757
0.00047613023 0.045551647 -0.23663703 0.3159201 0.35497084 0.2170521 -0.22358945 -0.18147232
0.28862584 -0.08598482 0.24193063 0.25993583 0.22767197 0.16983244 0.32237405 -0.1302529
0.059751812 -0.20207734 -0.16357797 -0.23407194 0.06907675 0.13652302 -0.02906989 -0.20099549
0.094007604 -0.33622804 0.10994453 -0.02667715 0.331098 -0.006150832 0.31027195 0.05618943
-0.061561152 -0.076442845 0.13451128 0.1615784 0.09889256 0.23358437 0.048521817 -0.19735418
00000000: b6ba bc3e d7a5 4c3e d14d b63e 1d88 1fbe
00000010: 5456 f2bd 21fe 053e e799 2d3e 3115 59be
00000020: 1eb0 4d3e 060d 143e 73a4 f0bc 999f 213d
00000030: b63a ba3e 1f01 1f3e e87b 3fbe ffa4 963e
00000040: 1ea1 f939 5d94 3a3d fa50 72be 48c0 a13e
00000050: bdbe b53e e842 5e3e a2f4 64be e1d3 39be
00000060: c4c6 933e cf18 b0bd aabc 773e 4f16 853e
00000070: d722 693e 8ee8 2d3e 360e a53e 0461 05be
00000080: 51be 743d 5ded 4ebe fc80 27be 8eb0 6fbe
00000090: 1c78 8d3d b1cc 0b3e fa23 eebc c3d1 4dbe
000000a0: 0f87 c03d 1526 acbe 992a e13d 0a8a dabc
000000b0: ad85 a93e eb8c c9bb f7db 9e3e e326 663d
000000c0: 8c27 7cbd 118e 9cbd 53bd 093e cf74 253e
000000d0: 2f88 ca3d be30 6f3e d0be 463d 3717 4abe

encoder.layers.1.weight_ih_l0 f4 [28, 14]
0.07619625 0.31962216 0.274526 0.20982072 0.13039345 0.02451596 0.015968278 0.038232144
-0.39191228 -0.23415266 0.06530492 0.26955584 -0.314764 0.20592746 0.36022955 0.23844786
0.10765746 0.0085358 -0.37116995 -0.4299603 0.16501024 -0.27681023 0.12447865 0.107672766
-0.5525541 0.15861903 -0.3638332 -0.04632231 0.16707319 0.10790341 0.18813305 0.29700127
0.13847753 -0.5068961 0.41532245 -0.21679403 -0.3566832 -0.39887547 -0.43604967 0.19184983
-0.105513655 -0.33911788 0.12842107 0.14742011 0.25011155 0.08245288 -0.4592501 0.09606264
-0.38052258 0.1350398 -0.2051633 -0.26403144 0.15229452 -0.05448426 -0.24911498 -0.36649913
0.539092 0.37305653 0.099610314 0.120237604 -0.39188635 0.10367326 0.12392728 -0.24088357
0.09430332 0.04999044 -0.09597798 -0.054642998 -0.25720832 -0.087623455 -0.13542637 0.25906926
0.16749959 0.21515207 -0.40332866 0.05999475 0.20326231 -0.45712113 -0.52836436 0.19229886
0.21473163 0.35128304 -0.44222152 -0.21811356 0.13772252 0.3730833 0.3093614 -0.009357447
0.01618031 -0.09505106 0.44082773 -0.31656048 -0.22640689 -0.020002358 -0.0710198 0.10141404
-0.31112817 -0.30556744 0.24737798 0.28191212 0.09756476 0.27912158 -0.42817605 -0.48636928
-0.06493513 -0.045218173 -0.38136235 -0.38061216 -0.33779314 -0.03151071 -0.10552798 -0.46084943
-0.038007636 0.11285314 0.20606281 -0.38922238 -0.34626225 0.19061959 -0.12871365 -0.1459164
-0.070366524 -0.22748858 -0.013510293 0.30946562 -0.4940465 -0.18918543 0.4599443 -0.12485788
0.3755198 0.43565065 -0.19261807 -0.2472536 0.35027826 -0.46321136 0.11373638 -0.11207889
-0.5166684 -0.2230747 -0.0655327 -0.046796605 0.06675178 -0.02053885 -0.20315978 -0.44848615
-0.19694151 0.028300025 -0.2655145 0.12997119 -0.50113696 -0.3843062 0.21182328 -0.16710828
-0.05595917 0.18541682 -0.097682156 0.12693939 0.1703344 -0.08883261 -0.29589242 -0.2716306
-0.02179663 0.123512946 0.34226882 -0.0047330074 -0.1486971 -0.080074586 -0.41017038 -0.29035953
-0.22178084 0.33386087 0.3423815 0.26393598 -0.12092401 -0.016206702 -0.010541573 -0.019644326
-0.22582796 0.15497275 -0.23532058 0.42147627 -0.14090274 0.13090223 0.07300458 0.10940874
0.4726767 0.25147617 -0.2511647 -0.40530315 -0.08345906 0.21578509 0.14475948 -0.4740497
-0.021980992 0.13238406 0.09478088 -0.17632054 -0.07193497 -0.013094326 0.21963425 0.05079929
-0.18563043 -0.2027393 -0.30391577 -0.2215884 -0.35980442 -0.42674455 -0.27764222 0.48518765
-0.2675911 -0.034381136 -0.22904967 -0.16896975 -0.33390188 0.24868321 0.16373615 0.5048618
0.3749962 0.24049221 -0.05911546 -0.15951462 0.38539886 -0.12434636 0.40396032 -0.03886548
-0.43622825 -0.18113853 -0.16288473 0.3971123 0.075778246 0.20393758 0.54087645 0.3237644
0.42057303 -0.126018 0.48384547 -0.46700698 0.1136206 -0.21071447 0.27413154 0.20117489
0.22740626 -0.18858717 0.09869144 -0.18024841 -0.22191125 -0.48543918 -0.16232875 -0.28755048
0.08885622 0.17792754 -0.50959224 -0.28451338 0.10903878 0.26718614 0.06390798 -0.38018548
00000000: c80c 9c3d 84a5 a33e ac8e 8c3e 3edb 563e
00000010: dc85 053e b2d5 c83c e8cf 823c 4f99 1c3d
00000020: baa8 c8be b7c5 6fbe 96be 853d 3903 8a3e
00000030: bf28 a1be a6de 523e 0270 b83e ad2b 743e
00000040: 847b dc3d bdd9 0b3c fd09 bebe c223 dcbe
00000050: 72f8 283e 12ba 8dbe aaee fe3d 8a83 dc3d
00000060: 2f74 0dbf 076d 223e 5848 babe 76bc 3dbd
00000070: 3c15 2b3e 77fc dc3d f3a5 403e 8d10 983e
00000080: 0ecd 0d3e f1c3 01bf 25a5 d43e 41ff 5dbe
00000090: 2e9f b6be 6839 ccbe e741 dfbe 4874 443e
000000a0: 8b17 d8bd dca0 adbe d080 033e 4cf5 163e
000000b0: 9f0e 803e 0edd a83d d422 ebbe 7dbc c43d
000000c0: dbd3 c2be e047 0a3e 5416 52be 212f 87be
000000d0: 18f3 1b3e e32a 5fbd ff17 7fbe c6a5 bbbe
000000e0: ef01 0a3f 4401 bf3e 7e00 cc3d 223f f63d
000000f0: 54a5 c8be a552 d43d 96cd fd3d 2faa 76be
00000100: 1922 c13d c7c2 4c3d 1a90 c4bd 56d1 5fbd
00000110: cfb0 83be ed73 b3bd 36ad 0abe baa4 843e
00000120: 0385 2b3e d350 5c3e 1881 cebe 0ebd 753d
00000130: ff23 503e c80b eabe e342 07bf fee9 443e
00000140: 9ce2 5b3e 5fdb b33e dc6a e2be 2959 5fbe
00000150: 2207 0d3e c604 bf3e 9e64 9e3e fa4f 19bc
00000160: 928c 843c 21aa c2bd 2cb4 e13e 3714 a2be
00000170: 35d7 67be fcdb a3bc d472 91bd 2ab2 cf3d
00000180: 314c 9fbe 5673 9cbe a750 7d3e c956 903e
00000190: 08d0 c73d 06e9 8e3e e439 dbbe 6505 f9be
000001a0: b6fc 84bd b136 39bd ed41 c3be 99df c2be
000001b0: 39f3 acbe 6011 01bd 0e1f d8bd 75f4 ebbe
000001c0: e5ad 1bbd 8c1f e73d 2102 533e 2848 c7be
000001d0: 4949 b1be c831 433e 83cd 03be 1c6b 15be
000001e0: 531c 90bd c4f2 68be 475a 5dbc 4772 9e3e
000001f0: aaf3 fcbe d3b9 41be d27d eb3e 7db5 ffbd
00000200: 2244 c03e 9a0d df3e ac3d 45be 0c30 7dbe
00000210: ac57 b33e 0a2a edbe 9fee e83d 9e89 e5bd
00000220: 6144 04bf b26d 64be 0236 86bd ccad 3fbd
00000230: 28b5 883d 1741 a8bc 1e09 50be fa9f e5be
00000240: 09ab 49be 74d5 e73c 84f1 87be 2b17 053e
00000250: 834a 00bf c8c3 c4be 34e8 583e 6f1e 2bbe
00000260: 7135 65bd e8dd 3d3e 950d c8bd 66fc 013e
00000270: 246c 2e3e dfed b5bd 367f 97be 2a13 8bbe
00000280: d98e b2bc 5bf4 fc3d dc3d af3e 5817 9bbb
00000290: 0d44 18be 25fe a3bd da01 d2be 01aa 94be
000002a0: 841a 63be d0ef aa3e a14c af3e 9e22 873e
000002b0: 02a7 f7bd ebc3 84bc 90b6 2cbc 23ed a0bc
000002c0: 723f 67be 2db1 1e3e e1f7 70be bdcb d73e
000002d0: cf48 10be 3c0b 063e 6d83 953d b111 e03d
000002e0: ae02 f23e 7cc1 803e a998 80be e583 cfbe
000002f0: 95ec aabd c4f6 5c3e d43b 143e a4b6 f2be
00000300: 7b11 b4bc b08f 073e 7a1c c23d 5f8d 34be
00000310: a452 93bd 9589 56bc cde7 603e eb12 503d
00000320: e715 3ebe e49a 4fbe d99a 9bbe 12e8 62be
00000330: 4938 b8be 437e dabe 1f27 8ebe 846a f83e
00000340: b301 89be 3cd3 0cbd ff8b 6abe 6806 2dbe
00000350: 30f5 aabe d0a6 7e3e 73aa 273e 9f3e 013f
00000360: 80ff bf3e 9743 763e 0d23 72bd cd57 23be
00000370: 0053 c53e 4ea9 febd e3d3 ce3e 6931 1fbd
00000380: 4f59 dfbe 617c 39be 41cb 26be 4e52 cb3e
00000390: a031 9b3d 03d5 503e e176 0a3f 73c4 a53e
000003a0: 5955 d73e dd0a 01be 98ba f73e 8a1b efbe
000003b0: ebb1 e83d 89c5 57be f85a 8c3e ca00 4e3e
000003c0: 30dd 683e ff1c 41be bd1e ca3d 0a93 38be
000003d0: b43c 63be 7c8b f8be 8239 26be d139 93be
000003e0: 40fa b53d a332 363e a374 02bf bdab 91be
000003f0: b94f df3d 9fcc 883e 30e2 823d aca7 c2be

encoder.layers.1.weight_hh_l0 f4 [28, 7]
0.39485767 -0.40097353 0.06546521 0.42737845 0.30178332 -0.19616947 -0.18418995 -0.02377583
-0.25120115 0.102848895 0.12681109 -0.081539914 0.17924133 -0.18644734 0.26339614 -0.49946883
0.23512392 0.076983705 -0.19920355 -0.14702992 0.012079794 0.31755066 0.2238311 -0.27814668
0.4783726 0.19973716 0.43790492 -0.4339531 -0.21280669 -0.367965 0.10249533 -0.060859527
0.37824428 0.32958475 0.17147993 0.14213206 -0.39972427 -0.08516495 0.029222682 -0.07307204
0.1248726 -0.22305398 0.0917212 -0.070495225 -0.08562947 0.1109386 0.35309094 0.022603713
0.038577516 0.032070015 0.14851058 0.09872329 -0.22875214 -0.13379705 0.029387614 -0.08967495
0.35381237 -0.22706309 -0.5038547 -0.12800701 0.39092547 0.3702306 -0.17733453 0.36677566
0.14355402 -0.22991167 0.10351683 0.026305463 0.48847425 0.2398937 -0.21999562 -0.30168742
-0.3714871 -0.06565141 -0.22041923 -0.038865764 -0.46024537 -0.15491718 -0.25961724 -0.323052
0.12557533 -0.119156934 0.29906243 -0.3358781 -0.29220855 -0.008916234 -0.420728 -0.014151487
0.13846432 -0.2390274 -0.3387805 -0.21056777 0.24275793 0.0653627 0.19487551 0.18792973
0.07092057 -0.09021832 0.2228431 -0.09787114 0.0743597 -0.047251817 -0.17200641 0.22749434
-0.45889527 -0.37169808 -0.045389522 -0.1409926 0.17928357 -0.24008395 -0.20102125 -0.13241531
-0.42116672 0.32970816 0.09096892 -0.25079614 0.21114099 -0.10799486 0.044434257 -0.09273495
0.20600827 -0.04445077 0.13162526 -0.032457482 -0.16270284 -0.40496153 -0.15067542 0.09642124
-0.07171761 -0.013356748 0.44728836 0.2611233 -0.29208866 0.37122998 -0.3859622 -0.112723544
0.3094815 0.37623337 -0.17565517 -0.17142439 -0.4401388 -0.0059709894 -0.1616199 -0.08602081
0.20961796 -0.17588998 0.059182595 0.08996581 0.1538368 -0.12851529 0.4920004 0.1721726
-0.0006742532 0.22882728 0.008934514 0.13257942 0.12009424 0.27917883 0.31517002 0.3816466
0.06281411 0.2367358 0.12700292 -0.23148526 0.033683315 0.02297703 -0.098101206 0.17966837
-0.14903265 0.15146364 0.08480175 0.27536532 0.33276355 -0.1640188 -0.35629034 0.12288604
-0.48975232 -0.23626055 0.1754339 0.2321362 0.07921779 -0.0750004 0.08147588 -0.1736325
0.22934033 0.23856625 -0.1510051 0.3331284 -0.3865057 0.36889228 -0.32884374 -0.08367001
0.36394736 0.2111491 -0.044142332 -0.29803082
00000000: c92a ca3e 674c cdbe a012 863d 59d1 da3e
00000010: 5883 9a3e a6e0 48be 4a9c 3cbe 88c5 c2bc
00000020: 709d 80be 71a2 d23d c4da 013e 66fe a6bd
00000030: 0a8b 373e 0dec 3ebe dcdb 863e 61ba ffbe
00000040: 53c4 703e a2a9 9d3d 04fc 4bbe 038f 16be
00000050: 54ea 453c 0096 a23e fb33 653e 3e69 8ebe
00000060: 41ed f43e e687 4c3e 1335 e03e 1a2f debe
00000070: ffe9 59be e965 bcbe 12e9 d13d d747 79bd
00000080: 3ca9 c13e 55bf a83e 6f98 2f3e 118b 113e
00000090: a9a8 ccbe f66a aebd 6864 ef3c cba6 95bd
000000a0: 35bd ff3d 4368 64be 53d8 bb3d cd5f 90bd
000000b0: 815e afbd c733 e33d 56c8 b43e 6c2b b93c
000000c0: 7503 1e3d d95b 033d 2813 183e 702f ca3d
000000d0: 003e 6abe 1802 09be 4bbe f03c 80a7 b7bd
000000e0: e526 b53e 3a83 68be 9ffc 00bf 4514 03be
000000f0: 6227 c83e dd8e bd3e 2f97 35be 05ca bb3e
00000100: d3ff 123e f76d 6bbe a200 d43d 8e7e d73c
00000110: 4c19 fa3e b2a6 753e 8846 61be c676 9abe
00000120: 8f33 bebe 3f74 86bd 94b5 61be b531 1fbd
00000130: 48a5 ebbe 9ca2 1ebe 8dec 84be 1267 a5be
00000140: d296 003e 8d08 f4bd b61e 993e 37f8 abbe
00000150: 5c9c 95be 6515 12bc a969 d7be a3db 67bc
00000160: 97c9 0d3e 99c3 74be a374 adbe 149f 57be
00000170: 8995 783e e1dc 853d 728d 473e a770 403e
00000180: ce3e 913d 62c4 b8bd fb30 643e aa70 c8bd
00000190: e649 983d 1f8b 41bd 7322 30be 47f4 683e
000001a0: 52f4 eabe 364f bebe 5dea 39bd 5d60 10be
000001b0: 1d96 373e 91d8 75be 84d8 4dbe e197 07be
000001c0: 2aa3 d7be 82cf a83e ea4d ba3d 5a68 80be
000001d0: 5835 583e 692c ddbd b200 363d d2eb bdbd
000001e0: d5f3 523e 0312 36bd c6c8 063e 23f2 04bd
000001f0: 939b 26be 1e57 cfbe a84a 1abe 8078 c53d
00000200: afe0 92bd 43d6 5abc fb02 e53e f4b1 853e
00000210: a58c 95be db11 be3e d69c c5be 9adb e6bd
00000220: 5c74 9e3e a9a1 c03e f3de 33be e089 2fbe
00000230: df59 e1be 4aa8 c3bb b07f 25be ae2b b0bd
00000240: 17a6 563e 811c 34be 7369 723d ff3f b83d
00000250: 6587 1d3e 8399 03be 7ae7 fb3e 044e 303e
00000260: 5ec0 30ba b351 6a3e 1162 123c e6c2 073e
00000270: f8f3 f53d 87f0 8e3e f75d a13e 2f67 c33e
00000280: afa4 803d df6a 723e 0e0d 023e 790a 6dbe
00000290: 84f7 093d 533a bc3c 49e9 c8bd fcfa 373e
000002a0: 049c 18be 4919 1b3e 8aac ad3d affc 8c3e
000002b0: fc5f aa3e 8bf4 27be b06b b6be adab fb3d
000002c0: d1c0 fabe 49ee 71be f2a4 333e 1db5 6d3e
000002d0: f03c a23d cf99 99bd d4dc a63d b8cc 31be
000002e0: 31d8 6a3e b64a 743e 15a1 1abe ce8f aa3e
000002f0: 13e4 c5be 73df bc3e 355e a8be 2f5b abbd
00000300: 4f57 ba3e 7837 583e 97ce 34bd 7f97 98be

encoder.layers.1.bias_ih_l0 f4 [28]
-0.14466447 0.34165338 0.27036256 -0.19091024 0.3965787 0.3315811 0.44070032 0.05490015
0.1555477 -0.21911114 0.278194 0.251356 -0.21441117 0.053806372 -0.14495283 -0.15396193
-0.27124715 0.5201021 0.16768552 0.43057963 -0.3815315 0.10474843 -0.10468539 0.18527973
0.39800215 0.45813304 -0.13533577 -0.061964493
00000000: ec22 14be 31ed ae3e f66c 8a3e f97d 43be
00000010: 5d0c cb3e ffc4 a93e 79a3 e13e fbde 603d
00000020: e547 1f3e ac5e 60be 726f 8e3e bcb1 803e
00000030: 9a8e 5bbe 1264 5c3d 846e 14be 32a8 1dbe
00000040: e8e0 8abe 6925 053f c1b5 2b3e ef74 dc3e
00000050: 1958 c3be 5886 d63d 4b65 d6bd f8b9 3d3e
00000060: f0c6 cb3e 6a90 ea3e 7695 0abe 7bce 7dbd

encoder.layers.1.bias_hh_l0 f4 [28]
0.18755837 0.29693156 0.2475107 -0.17278185 0.4470035 0.47957936 0.17715284 0.3849878
-0.095753625 0.2952029 0.18448986 0.47714785 0.20043346 0.18931548 0.27870744 -0.29071933
0.027140418 -0.18996146 0.3089408 0.20873356 -0.0028587151 0.2803123 0.033568177 0.46824214
0.4813643 0.16194549 0.2710055 0.003707208
00000000: 4d0f 403e 6a07 983e 7273 7d3e baed 30be
00000010: a5dd e43e 6d8b f53e 8e67 353e 1f1d c53e
00000020: 7a1a c4bd d624 973e e9ea 3c3e b94c f43e
00000030: 6e3e 4d3e ebdb 413e beb2 8e3e 2ad9 94be
00000040: 9555 de3c 4285 42be 7d2d 9e3e 40be 553e
00000050: 4859 3bbb 1885 8f3e c97e 093d 6fbd ef3e
00000060: 6275 f63e 0ad5 253e 3cc1 8a3e a1f4 723b

encoder.layers.2.weight_ih_l0 f4 [20, 7]
0.5612514 0.14464222 -0.5779218 0.34413114 0.055321388 -0.08542858 -0.3929604 -0.07379917
-0.15422527 -0.1426415 -0.23793733 0.44061127 0.5034188 0.11837756 -0.20323597 0.18495242
-0.2736478 0.5162548 -0.080037154 -0.023612129 0.10479027 0.48066437 0.19084616 -0.42636523
0.50550425 -0.1619343 -0.0594985 -0.05890884 0.6477693 -0.33347788 -0.34376636 0.285261
0.2577275 0.2553531 0.012086645 -0.25032672 0.0701996 -0.31333178 -0.29340026 0.037089232
0.4114873 -0.22500534 0.4326848 -0.42251647 0.13864864 0.21684001 0.461793 0.4955366
-0.010202425 -0.11791466 0.04536031 -0.4934399 0.09363634 -0.035062056 0.24831864 -0.24053462
0.369039 -0.42113012 0.06875794 0.38227987 0.38764688 -0.05495434 -0.5631658 0.26961803
-0.4584791 0.26288104 -0.0017131518 0.4641523 0.3924113 0.21069951 0.2371842 -0.05125642
-0.2725584 0.19088733 0.47344798 0.024093477 -0.50614977 -0.047825962 -0.5690178 -0.60316396
0.2450845 0.20362899 0.38430685 -0.5369184 -0.45170406 0.578982 0.48249206 -0.0065576867
-0.45830917 -0.09363115 0.6247258 -0.32523912 0.5021875 0.41409618 -0.086991996 -0.46173444
-0.093765564 0.1965743 -0.058769513 0.09474191 -0.42032108 0.28016227 0.14116697 -0.040652987
-0.37530345 -0.14002745 -0.5328537 -0.59498 0.5545144 -0.14962383 0.4629445 -0.24811415
0.59903216 0.07790062 0.03647682 0.1355842 0.5235799 -0.16915049 0.18382382 0.04276446
-0.424266 -0.18109679 0.03239016 -0.07298843 0.2899178 -0.034556907 0.5498994 -0.55848694
-0.30020538 0.5992596 -0.14142619 0.12592475 -0.056831513 0.32702625 -0.03731607 -0.105911106
0.52588826 0.54599947 0.22064136 -0.102138445
00000000: 2cae 0f3f 171d 143e aff2 13bf f531 b03e
00000010: ae98 623d 2ef5 aebd 1b32 c9be 0524 97bd
00000020: 3bed 1dbe 9d10 12be d8a5 73be cd97 e13e
00000030: 0ee0 003f ef6f f23d 171d 50be 2b64 3d3e
00000040: 901b 8cbe 4629 043f 85ea a3bd 396e c1bc
00000050: 489c d63d a419 f63e 2d6d 433e 8b4c dabe
00000060: ba68 013f 1bd2 25be b3b4 73bd 654a 71bd
00000070: 35d4 253f 9dbd aabe 2502 b0be bb0d 923e
00000080: dcf4 833e a4bd 823e 1007 463c d32a 80be
00000090: cfc4 8f3d 066d a0be 8f38 96be e1ea 173d
000000a0: 77ae d23e cd67 66be dd88 dd3e 1454 d8be
000000b0: e9f9 0d3e 4f0b 5e3e 2270 ec3e f9b6 fd3e
000000c0: 1228 27bc 3e7d f1bd bbcb 393d 28a4 fcbe
000000d0: 69c4 bf3d 3b9d 0fbd 3e47 7e3e b54e 76be
000000e0: aef2 bc3e 5e9e d7be f6d0 8c3d 30ba c33e
000000f0: a779 c63e cd17 61bd a22b 10bf 600b 8a3e
00000100: c6bd eabe 5898 863e d68b e0ba 5fa5 ed3e
00000110: 22ea c83e 9dc1 573e 6ae0 723e 40f2 51bd
00000120: c68c 8bbe f877 433e c667 f23e af5f c53c
00000130: 0893 01bf 28e5 43bd 27ab 11bf f468 1abf
00000140: 6ef7 7a3e 1e84 503e dec3 c43e 7c73 09bf
00000150: c145 e7be 2a38 143f 3309 f73e dde1 d6bb
00000160: 80a7 eabe b0c1 bfbd 08ee 1f3f be85 a6be
00000170: 5c8f 003f 6a04 d43e dc28 b2bd 7568 ecbe
00000180: 2908 c0bd c64a 493e 4db8 70bd 0c08 c23d
00000190: 5334 d7be 6e71 8f3e 138e 103e bf83 26bd
000001a0: c627 c0be 5b63 0fbe 1a69 08bf 9c50 18bf
000001b0: a8f4 0d3f fd36 19be 1007 ed3e a311 7ebe
000001c0: 2c5a 193f 5c8a 9f3d b868 153d 96d6 0a3e
000001d0: 5509 063f c935 2dbe 503c 3c3e c929 2f3d
000001e0: 6539 d9be 7071 39be 8bab 043d f57a 95bd
000001f0: 1b70 943e 8b8b 0dbd 35c6 0c3f 00f9 0ebf
00000200: 85b4 99be 1469 193f 07d2 10be 6bf2 003e
00000210: 29c8 68bd fc6f a73e bcd8 18bd ece7 d8bd
00000220: 9da0 063f 9fc6 0b3f cfef 613e f62d d1bd

encoder.layers.2.weight_hh_l0 f4 [20, 5]
-0.09568802 0.20319386 0.13415149 0.20243791 -0.23546027 0.13444445 -0.08950549 -0.41203082
0.18393268 0.36356935 0.44754794 0.41838235 0.11334076 -0.24452913 0.37153888 0.27654362
0.25987515 -0.30958897 -0.26141816 0.008847522 -0.35482338 0.38879788 -0.22625239 -0.45716158
0.12314409 -0.34015387 -0.23429541 -0.45148936 -0.1769419 0.5898102 0.3862087 -0.2913878
0.16577762 -0.42943895 -0.119872175 -0.24506058 0.08093277 -0.15454486 0.27599862 -0.118915714
0.21750872 0.18621214 -0.17398904 -0.052947666 -0.22861671 0.006637714 0.60777044 0.25960448
0.14542572 -0.16554219 -0.058882054 -0.25959042 0.12131306 -0.34196904 0.2704606 -0.24864171
-0.25453907 -0.6101454 0.07720596 -0.18600835 -0.15445745 0.3884132 0.5766329 0.25564536
0.28075433 -0.4367994 -0.053839043 0.21618144 0.09820978 0.21531524 -0.32884452 0.06912977
-0.14021367 0.17163903 0.02814837 -0.049690742 0.38007632 0.2125392 0.11645835 -0.10863223
0.027649574 0.5093088 -0.41154692 -0.161917 0.591451 -0.15864392 0.4675757 -0.5535865
0.03704855 0.29248354 -0.068356425 -0.22978605 -0.24514377 0.14799681 0.44314596 0.4473282
0.42669058 -0.52609974 0.14607853 0.6038375
00000000: 15f8 c3bd 0d12 503e 025f 093e e24b 4f3e
00000010: 7f1c 71be ceab 093e a84e b7bd b4f5 d2be
00000020: d958 3c3e c325 ba3e 0125 e53e 3636 d63e
00000030: 331f e83d d865 7abe 583a be3e 2097 8d3e
00000040: 5b0e 853e 7282 9ebe 9ad8 85be 32f5 103c
00000050: 69ab b5be 8410 c73e b5ae 67be 1511 eabe
00000060: f832 fc3d a628 aebe 23eb 6fbe 9d29 e7be
00000070: 4230 35be cdfd 163f 26bd c53e c830 95be
00000080: 9cc1 293e 6cdf dbbe 8b7f f5bd 29f1 7abe
00000090: 15c0 a53d 0241 1ebe b14f 8d3e 158a f3bd
000000a0: 9bba 5e3e 65ae 3e3e 2f2a 32be a7df 58bd
000000b0: 801a 6abe 2e81 d93b d896 1b3f e1ea 843e
000000c0: 7bea 143e e483 29be 4f2e 71bd 09e9 84be
000000d0: fb72 f83d 9116 afbe d079 8a3e ef9b 7ebe
000000e0: f252 82be 7d32 1cbf 291e 9e3d f978 3ebe
000000f0: 182a 1ebe 18de c63e 379e 133f f3e3 823e
00000100: 08bf 8f3e 2ca4 dfbe 5486 5cbd ab5e 5d3e
00000110: 3622 c93d 997b 5c3e 4f5e a8be e993 8d3d
00000120: 2c94 0fbe 24c2 2f3e 6997 e63c 8588 4bbd
00000130: 5d99 c23e e0a3 593e b781 ee3d 937a debd
00000140: 5c81 e23c 1062 023f 47b6 d2be 92cd 25be
00000150: 5569 173f 8d73 22be 1566 ef3e d8b7 0dbf
00000160: 38c0 173d 67c0 953e 74fe 8bbd 094d 6bbe
00000170: f806 7bbe 7a8c 173e 07e4 e23e 3408 e53e
00000180: 3077 da3e 79ae 06bf 9c95 153e 1895 1a3f

encoder.layers.2.bias_ih_l0 f4 [20]
0.19428526 0.08234108 0.4019628 -0.07931757 0.52214193 0.029124714 0.3074771 -0.014937668
0.266382 -0.19275083 -0.025066424 0.49377808 -0.41838232 -0.18140137 0.21522032 0.37379873
0.13912457 -0.055257563 0.015817057 0.20453623
00000000: b7f2 463e 71a2 a83d 11ce cd3e 4071 a2bd
00000010: 18ab 053f f496 ee3c a36d 9d3e 1fbd 74bc
00000020: 3963 883e 7960 45be 1a58 cdbc 7bd0 fc3e
00000030: 3536 d6be 48c1 39be b762 5c3e 8c62 bf3e
00000040: ac76 0e3e c155 62bd c692 813c f271 513e

encoder.layers.2.bias_hh_l0 f4 [20]
-0.23301153 -0.20411907 0.6348413 -0.21002163 0.14243945 0.42434362 0.11843433 -0.16771637
-0.15895076 0.160199 0.09653312 0.11459913 0.23961706 -0.09336799 0.36136174 0.6182413
0.4342228 0.011513326 0.2414373 0.07368757
00000000: 939a 6ebe 9704 51be f684 223f e90f 57be
00000010: a6db 113e 9143 d93e b38d f23d d7bd 2bbe
00000020: fdc3 22be 350b 243e 28b3 c53d f3b2 ea3d
00000030: 2d5e 753e b737 bfbd 6804 b93e 1045 1e3f
00000040: 7352 de3e 64a2 3c3c 573b 773e 82e9 963d

decoder.layers.0.weight_ih_l0 f4 [28, 5]
-0.107486494 0.22534299 0.050536226 -0.12196705 -0.16878548 0.2963923 -0.21237485 -0.24769495
-0.3510768 0.5023537 0.15150072 -0.099964224 -0.1598452 -0.24189474 0.18071415 0.12654886
-0.07809462 -0.5529647 -0.3377337 0.5165104 -0.07219782 0.41161793 0.09654564 0.18076658
-0.10572108 0.08399847 0.097660236 -0.13872981 0.096086286 0.33191356 0.21053623 0.28390267
-0.30354077 -0.08253925 -0.009528897 -0.17062134 0.33486626 -0.23825839 -0.05227807 0.03665524
0.40274316 0.44476092 -0.31144935 -0.27777225 -0.060310636 0.3186683 0.066024795 -0.18629472
0.08312676 0.04371016 0.22049823 0.42810032 -0.09653861 -0.15163891 0.25973335 -0.05479403
0.23370373 0.1814875 -0.085935086 -0.13499819 0.5209463 0.19160965 -0.046223532 -0.20566824
0.10688655 0.2070496 -0.16782044 -0.18181512 -0.012002016 -0.012811025 -0.19733529 0.49174526
-0.018250056 -0.53353775 0.05723957 -0.44550645 -0.007566233 0.45639282 0.4020911 0.11582535
0.45701927 0.43174517 0.10004281 -0.09171657 0.25984356 0.25602353 0.52074456 -0.045099176
-0.33238852 0.49220875 0.17496319 0.54781705 -0.2757194 -0.32142913 0.40604848 -0.40819892
-0.18427461 0.39565375 0.13545784 0.13107145 0.23589313 0.18633448 -0.563641 -0.38481173
0.3175204 0.4309861 -0.17048442 0.118396886 -0.40570405 0.212727 -0.16995573 0.23499946
-0.030795587 0.048137676 0.35224554 0.356252 -0.19706646 -0.17307368 -0.5369677 -0.030676212
-0.1497368 0.49133936 -0.47913703 -0.40695503 0.27201483 -0.15059021 0.048913464 -0.009476048
-0.09834312 0.3258916 0.031443287 -0.12630963 -0.091001384 -0.40748468 0.16095638 0.34867448
0.3851554 0.14307943 -0.5671732 0.038384326
00000000: e121 dcbd 50c0 663e 13ff 4e3d dcc9 f9bd
00000010: 1ad6 2cbe bbc0 973e cb78 59be bfa3 7dbe
00000020: 57c0 b3be 419a 003f 0123 1b3e 0bba ccbd
00000030: 76ae 23be 41b3 77be 210d 393e 0696 013e
00000040: 12f0 9fbd 188f 0dbf 6eeb acbe 073a 043f
00000050: 73dc 93bd 96bf d23e b8b9 c53d e01a 393e
00000060: 4b84 d8bd 6407 ac3d 1702 c83d 300f 0ebe
00000070: e3c8 c43d 93f0 a93e cf96 573e b15b 913e
00000080: b269 9bbe 570a a9bd 171f 1cbc 5cb7 2ebe
00000090: 9773 ab3e 02fa 73be 8821 56bd ce23 163d
000000a0: 5a34 ce3e b4b7 e33e 4a76 9fbe 2a38 8ebe
000000b0: 4908 77bd 7e28 a33e 0238 873d 0bc4 3ebe
000000c0: 5d3e aa3d 6d09 333d 4aca 613e f72f db3e
000000d0: 09b6 c5bd 3b47 1bbe c5fb 843e b46f 60bd
000000e0: 0850 6f3e dcd7 393e bcfe afbd f73c 0abe
000000f0: bd5c 053f 5235 443e e354 3dbd b29a 52be
00000100: 56e7 da3d cf04 543e 1fd9 2bbe be2d 3abe
00000110: 1ba4 44bc 55e5 51bc 4312 4abe 09c6 fb3e
00000120: 2481 95bc ee95 08bf 0a74 6a3d 6c19 e4be
00000130: 2aee f7bb 52ac e93e e2de cd3e d735 ed3d
00000140: 6efe e93e b40d dd3e 3fe3 cc3d e6d5 bbbd
00000150: 370a 853e 8415 833e 844f 053f eab9 38bd
00000160: d42e aabe c902 fc3e 8d29 333e bd3d 0c3f
00000170: 182b 8dbe 5c92 a4be 96e5 cf3e 73ff d0be
00000180: 7cb2 3cbe 2193 ca3e 76b5 0a3e 9837 063e
00000190: f88d 713e 77ce 3e3e c74a 10bf 0b06 c5be
000001a0: 0992 a23e 36aa dc3e 7893 2ebe 117a f23d
000001b0: 71b8 cfbe 1bd5 593e e008 2ebe b3a3 703e
000001c0: 0747 fcbc 032c 453d 8759 b43e aa66 b63e
000001d0: cacb 49be 3a3a 31be b776 09bf ae4c fbbc
000001e0: 9b54 19be d590 fb3e 7351 f5be 695c d0be
000001f0: 8745 8b3e 5234 1abe 7c59 483d 6d41 1bbc
00000200: 1e68 c9bd 44db a63e adca 003d 5057 01be
00000210: ef5e babd d5a1 d0be c0d1 243e 7685 b23e
00000220: 1733 c53e 6a83 123e 4332 11bf e238 1d3d

decoder.layers.0.weight_hh_l0 f4 [28, 7]
0.41744432 0.044301324 0.1941308 0.12518093 0.27006042 0.05323792 0.2928819 -0.27492607
-0.38763103 0.408092 0.45983857 0.26211312 0.19851485 -0.19970024 0.2895611 0.17929155
0.052854564 0.058734864 0.47122258 -0.36047873 0.036135167 0.37177947 -0.15864706 0.33257616
0.23027734 0.16760115 -0.419695 0.22040392 0.5239446 -0.22782485 0.27319953 0.18472815
-0.122638166 0.2413621 0.45817494 0.21340424 -0.2761259 -0.06814928 0.1489057 0.37429273
-0.3101815 0.25101772 0.0713894 -0.25694445 0.1652662 -0.14368634 0.26336446 0.15566063
-0.036721677 0.042501602 -0.24683909 0.17164509 -0.17589684 0.27402988 -0.44868368 0.123534925
-0.099364325 -0.3919277 0.3917946 -0.14442408 -0.22542705 -0.09383457 0.27340457 0.45088518
-0.4014744 0.3925248 0.07561996 -0.03323488 -0.2604244 0.46457636 0.1887461 -0.21015549
0.007180993 0.42911816 -0.19767474 -0.11107778 0.50000757 0.33218896 0.12570478 -0.0083625065
-0.18464127 0.20789564 -0.21281669 0.38156763 0.17406467 -0.27471966 0.42309105 -0.16173175
0.44797373 0.1665174 -0.051196504 -0.0990787 -0.42526537 0.018143704 0.5063254 -0.035948534
0.24620758 0.04862552 0.4705906 -0.18239957 0.11680879 0.07046506 0.11539376 -0.13343498
-0.006346844 0.11956748 -0.14343527 -0.07451861 0.22786437 0.10546891 0.43324283 -0.13021429
0.4223609 0.120736726 -0.2587311 0.09570922 0.38070083 -0.07973267 -0.11007437 -0.15007676
0.18761888 -0.13230184 0.22636779 0.2969669 0.19962624 0.26354212 -0.258623 0.005094694
0.16670166 0.17741483 0.26111037 -0.40044633 -0.161715 -0.02105112 -0.25202745 -0.27077654
-0.047705684 -0.14094268 0.30996644 -0.48662108 0.42730746 0.23119873 0.17353585 -0.10830753
-0.2027223 -0.17399968 0.20346397 0.020639995 -0.09669942 0.21629387 0.2908988 0.46818677
0.065242186 0.37724495 0.48179612 -0.18645175 0.4793328 0.19748023 0.19270627 -0.43650612
0.2893151 0.3095828 0.19409601 0.004166028 0.44734937 -0.18731491 -0.07663211 -0.16074082
0.49046224 -0.33711958 0.4851463 0.012867406 0.498826 -0.13532732 0.31162915 0.23884495
-0.3136963 0.47231257 0.13826266 0.09397062 0.20125628 0.34596756 -0.08792095 -0.1406399
0.19102558 0.05237963 0.074981555 -0.16073415 0.3084512 0.5323056 -0.15104629 -0.11596932
0.48673773 0.045628585 -0.15947163 -0.124527276
00000000: 43bb d53e 4e75 353d 39ca 463e 6e2f 003e
00000010: 5c45 8a3e 0110 5a3d 9ef4 953e 1cc3 8cbe
00000020: 9377 c6be 6ff1 d03e f66f eb3e b133 863e
00000030: 7a47 4b3e 387e 4cbe 5a41 943e 3498 373e
00000040: 077e 583d f893 703d 1644 f13e ab90 b8be
00000050: 7802 143d e159 be3e 6074 22be 6c47 aa3e
00000060: d3cd 6b3e a39f 2b3e 43e2 d6be 91b1 613e
00000070: 3c21 063f eb4a 69be cfe0 8b3e 6029 3d3e
00000080: b829 fbbd a027 773e e895 ea3e a486 5a3e
00000090: 6060 8dbe da91 8bbd bc7a 183e 4ca3 bf3e
000000a0: 1cd0 9ebe 6585 803e 9b34 923d 398e 83be
000000b0: 8b3b 293e 8322 13be b5d7 863e 8065 1f3e
000000c0: 7869 16bd 2916 2e3d 63c3 7cbe bbc3 2f3e
000000d0: 4d1e 34be a54d 8c3e deb9 e5be e1ff fc3d
000000e0: 867f cbbd bfaa c8be 4d99 c83e e8e3 13be
000000f0: 59d6 66be 572c c0bd affb 8b3e 6cda e63e
00000100: 0d8e cdbe 03f9 c83e a3de 9a3d 4c21 08bd
00000110: 5956 85be f4dc ed3e a846 413e 0033 57be
00000120: 894e eb3b 60b5 db3e 3f6b 4abe bf7c e3bd
00000130: 7f00 003f ac14 aa3e c1b8 003e e502 09bc
00000140: 9a12 3dbe 98e2 543e 9eec 59be d55c c33e
00000150: 023e 323e 0ea8 8cbe 649f d83e 029d 25be
00000160: d05c e53e 8a83 2a3e 6db3 51bd c6e9 cabd
00000170: 62bc d9be 1ba2 943c 8b9e 013f c53e 13bd
00000180: d71d 7c3e 8e2b 473d 40f1 f03e f4c6 3abe
00000190: 7239 ef3d fc4f 903d 9053 ec3d 2ea3 08be
000001a0: 30f9 cfbb ccdf f43d b2e0 12be 379d 98bd
000001b0: 4755 693e 1500 d83d 01d2 dd3e e556 05be
000001c0: b03f d83e d144 f73d 6778 84be 3203 c43d
000001d0: 38eb c23e e24a a3bd ac6e e1bd b9ad 19be
000001e0: 2a1f 403e 227a 07be f5cc 673e 0c0c 983e
000001f0: d26a 4c3e feee 863e 3c6a 84be 64f1 a63b
00000200: d7b3 2a3e 3cac 353e 42b0 853e 4d07 cdbe
00000210: 9e98 25be 6673 acbc be09 81be 39a3 8abe
00000220: 0967 43bd 4753 10be ecb3 9e3e 6626 f9be
00000230: 0bc8 da3e 5cbf 6c3e 62b3 313e 57d0 ddbd
00000240: 6f96 4fbe f92c 32be dc58 503e 3515 a93c
00000250: 580a c6bd 247c 5d3e b0f0 943e 2db6 ef3e
00000260: b29d 853d 4026 c13e fbad f63e 35ed 3ebe
00000270: 1c6b f53e 4238 4a3e cb54 453e bb7d dfbe
00000280: 1c21 943e a381 9e3e 1bc1 463e 2d83 883b
00000290: fa0a e53e 7bcf 3fbe 4cf1 9cbd 3e99 24be
000002a0: de1d fb3e f09a acbe 1965 f83e d0d1 523c
000002b0: 1f66 ff3e 3f93 0abe db8d 9f3e c593 743e
000002c0: cd9c a0be f4d2 f13e ba94 0d3e ab73 c03d
000002d0: 2016 4e3e a922 b13e e60f b4bd e803 10be
000002e0: 369c 433e 068c 563d ee8f 993d 7e97 24be
000002f0: 51ed 9d3e 2e45 083f e1ab 1abe 5381 edbd
00000300: b035 f93e 0ae5 3a3d 884c 23be 2808 ffbd

decoder.layers.0.bias_ih_l0 f4 [28]
-0.1338 0.49904212 0.08883803 -0.01478848 0.0010190615 0.22459705 -0.1797209 0.14021468
0.27787918 -0.09186259 0.2768536 0.22199023 -0.18841861 0.20052779 0.249216 -0.38865334
0.4775454 0.27401015 0.5319333 -0.24324109 0.34211224 0.5201345 0.067036115 -0.14409645
-0.16151883 -0.08755074 0.15343624 -0.09702765
00000000: de02 09be 7382 ff3e b7f0 b53d 614b 72bc
00000010: 0892 853a c5fc 653e c108 38be 7094 0f3e
00000020: 2e46 8e3e 7422 bcbd c1bf 8d3e 6851 633e
00000030: cff0 40be 2857 4d3e 7b32 7f3e 92fd c6be
00000040: d580 f43e 0f4b 8c3e c82c 083f 3114 79be
00000050: 5629 af3e 8927 053f 3b4a 893d 058e 13be
00000060: 3165 25be cd4d b3bd 641e 1d3e 6fb6 c6bd

decoder.layers.0.bias_hh_l0 f4 [28]
0.072641894 -0.11046046 0.005179563 0.37036532 0.3247177 0.048230167 0.12022603 0.2929504
0.05326083 0.2990508 0.1810221 -0.089741156 -0.003013256 0.22378506 0.3248017 -0.2889166
0.18703127 0.44381484 0.44063863 -0.072313085 0.32168993 -0.061954204 -0.021861508 0.31032336
0.38489717 -0.014435167 -0.094909616 -0.14485407
00000000: 46c5 943d 1839 e2bd 53b9 a93b 86a0 bd3e
00000010: 6641 a63e ff8c 453d 1139 f63d 98fd 953e
00000020: 0728 5a3d 301d 993e db5d 393e 36ca b7bd
00000030: 0c7a 45bb e927 653e 694c a63e e0ec 93be
00000040: 2085 3f3e b33b e33e 639b e13e e218 94bd
00000050: 8bb4 a43e b1c3 7dbd e816 b3bc b4e2 9e3e
00000060: 3e11 c53e 7b81 6cbc f95f c2bd a054 14be

decoder.layers.1.weight_ih_l0 f4 [56, 7]
0.30531386 -0.2627034 0.22766662 0.05039065 0.14584836 -0.2572563 0.39848596 0.3589539
-0.17269911 0.3479547 0.0490971 0.051848393 -0.113995545 0.0389982 -0.046256896 -0.101863615
0.11629669 0.2107968 0.03948581 -0.16086443 0.4510147 0.18607287 -0.22065726 0.18269911
0.059152283 0.26047117 -0.12956052 0.012209541 0.117474385 -0.21305563 0.4547825 0.35580918
0.056858856 -0.076256335 -0.015226294 -0.08980677 0.07719347 -0.051863186 0.4181298 0.05151797
-0.026624158 0.17267144 0.1410053 -0.089633204 0.04357607 0.2682467 0.03907766 0.013817844
-0.097261794 0.06039592 0.00757922 0.089089364 0.41914254 0.29221883 -0.13358034 0.17802106
-0.029334605 -0.36632508 0.38291287 0.33453023 -0.06307954 -0.27124342 0.2758441 0.058396492
-0.41017452 0.26656798 0.26265055 0.107418425 0.027754856 0.2436822 0.41208956 -0.4612912
0.35812205 0.038238525 0.27949336 -0.16406052 0.062761515 0.23915431 0.023328379 -0.043973543
-0.07881219 0.06507738 -0.21794501 0.051692598 0.39481464 -0.08076073 0.11832566 0.26493147
0.23705082 -0.2998239 0.25683784 0.10116865 -0.1645122 0.42288926 0.4320966 -0.034539964
-0.2347711 0.17879735 -0.069834165 -0.32851884 0.37504026 0.30217105 0.062909454 0.0043204757
0.3403521 0.015285125 0.013706874 0.25968063 0.05371457 -0.0886346 0.11935924 -0.08643267
0.013810991 -0.16075486 0.15929294 0.13319828 0.4225257 -0.25857192 0.15730149 -0.0021057306
-0.391601 0.14646314 -0.072758235 0.054806333 -0.12569757 -0.09699452 0.20743054 0.007077503
0.15424652 -0.0720888 0.058515627 -0.034209967 0.4077075 0.3105206 -0.22082019 0.33754495
0.31704688 0.36671227 -0.29304475 0.3319419 0.23921682 -0.07303316 0.19089802 -0.09120553
0.3896651 -0.4190187 0.3330767 -0.01878838 -0.28396904 0.06568366 0.41844195 0.4032433
0.11901077 0.09789948 0.3273608 -0.14706092 -0.0496548 -0.09959771 -0.08637607 -0.32476106
0.38053557 0.3141548 0.020086536 -0.044360332 0.19411631 0.16287549 0.10700257 0.06904025
-0.023357468 0.031573534 -0.00527127 0.077533 0.086980835 -0.097398646 0.056023825 0.17795014
-0.38930407 0.29307002 -0.07209145 0.37202394 -0.012138125 0.32747442 0.29809964 -0.22614986
-0.102153786 0.23566984 -0.11320383 -0.00076102733 0.34544703 0.34965065 -0.35473773 0.20285696
0.28807026 -0.09167949 -0.122363865 0.28474715 0.31946754 -0.028811332 0.033533618 0.4271005
0.34082642 -0.17040959 0.11116643 0.021480294 0.03302125 -0.06699335 0.41570455 0.17772959
0.032968756 0.12640493 0.05467139 -0.12707669 0.32580948 0.32976976 0.42843017 -0.21064806
0.4382648 0.0781545 0.058585074 0.2909797 0.1220162 0.2111165 -0.24329524 0.24501066
0.0052061947 -0.08616581 -0.14106321 -0.1397425 -0.08806583 0.23569483 -0.27381462 0.06395069
0.39170602 -0.20073944 -0.36830792 -0.27468297 0.27143157 -0.21374805 -0.22873063 0.10204295
-0.21975565 -0.36884108 -0.1875222 0.12991524 -0.40278202 -0.39791137 0.30446196 -0.16618025
-0.0701558 -0.25698668 0.2903201 -0.26287842 -0.054909784 0.31810033 -0.40267372 -0.094072334
00000000: 1952 9c3e 0f81 86be 7021 693e 6d66 4e3d
00000010: 4659 153e 19b7 83be 5a06 cc3e cec8 b73e
00000020: 09d8 30be 1e27 b23e 0a1a 493d fb5e 543d
00000030: 7f76 e9bd 94bc 1f3d df77 3dbd df9d d0bd
00000040: f62c ee3d 1edb 573e dfbb 213d a5b9 24be
00000050: 66eb e63e e389 3e3e faf3 61be 7a15 3b3e
00000060: aa49 723d 7a5c 853e 83ab 04be 870a 483c
00000070: 6996 f03d 412b 5abe 40d9 e83e 9f2c b63e
00000080: d5e4 683d 482c 9cbd b577 79bc 9dec b7bd
00000090: 9c17 9e3d 7e6e 54bd 1c15 d63e 8204 533d
000000a0: e81a dabc c8d0 303e b263 103e 9d91 b7bd
000000b0: d27c 323d a257 893e e50f 203d 3d64 623c
000000c0: 3131 c7bd b661 773d 1b5b f83b 7c74 b63d
000000d0: da99 d63e b59d 953e 49c9 08be 274b 363e
000000e0: 204f f0bc f68e bbbe 280d c43e 8c47 ab3e
000000f0: d92f 81bd 6be0 8abe 703b 8d3e 2931 6f3d
00000100: 6502 d2be 997b 883e 227a 863e 31fe db3d
00000110: 275e e33c d487 793e 67fd d23e 5c2e ecbe
00000120: c65b b73e 00a0 1c3d c119 8f3e 7bff 27be
00000130: 1c89 803d dee4 743e 281b bf3c 9a1d 34bd
00000140: 4968 a1bd 4a47 853d fa2c 5fbe 9ebb 533d
00000150: 2525 ca3e e265 a5bd b954 f23d 19a5 873e
00000160: 73bd 723e 8582 99be 4080 833e 8231 cf3d
00000170: e375 28be f184 d83e c43b dd3e c779 0dbd
00000180: d667 70be a716 373e 3705 8fbd 9f33 a8be
00000190: 4705 c03e 2ab6 9a3e acd6 803d c792 8d3b
000001a0: a142 ae3e 766e 7a3c cc92 603c dcf4 843e
000001b0: cf03 5c3d 0f86 b5bd 9e72 f43d 9d03 b1bd
000001c0: 7f47 623c ec9c 24be b01d 233e 2165 083e
000001d0: 4a55 d83e 8a63 84be a413 213e 4c00 0abb
000001e0: ed7f c8be 6ffa 153e 4502 95bd 9b7c 603d
000001f0: ddb6 00be 10a5 c6bd ac68 543e 66ea e73b
00000200: cdf2 1d3e 4ba3 93bd 15ae 6f3d c01f 0cbd
00000210: 0abf d03e 8efc 9e3e b01e 62be b1d2 ac3e
00000220: f853 a23e b6c1 bb3e f609 96be 4af4 a93e
00000230: 41f5 743e 6992 95bd c57a 433e f7c9 babd
00000240: 2f82 c73e 9e89 d6be 0789 aa3e 17ea 99bc
00000250: 6464 91be 2885 863d 063e d63e e875 ce3e
00000260: ebbb f33d 867f c83d d69b a73e 2397 16be
00000270: d562 4bbd e2f9 cbbd f0e5 b0bd 1547 a6be
00000280: 8fd5 c23e e6d8 a03e 858c a43c 2eb3 35bd
00000290: 6dc6 463e d5c8 263e 2a24 db3d f964 8d3d
000002a0: 2958 bfbc 4053 013d 9eba acbb 9fc9 9e3d
000002b0: 0223 b23d f178 c7bd 3d79 653d 9038 363e
000002c0: dd52 c7be 460d 963e afa4 93bd ec79 be3e
000002d0: fcde 46bc baaa a73e 84a0 983e d493 67be
000002e0: 0136 d1bd 6f53 713e 69d7 e7bd ae7f 47ba
000002f0: 6fde b03e 6905 b33e 2fa0 b5be bcb9 4f3e
00000300: f27d 933e 75c2 bbbd e899 fabd 61ca 913e
00000310: 4091 a33e be05 ecbc 8c5a 093d ebac da3e
00000320: cd80 ae3e da7f 2ebe 3aab e33d 71f7 af3c
00000330: 4a41 073d cf33 89bd 3ad7 d43e bffe 353e
00000340: 3f0a 073d 4b70 013e 1cef 5f3d 6420 02be
00000350: 80d0 a63e 95d7 a83e 335b db3e 20b4 57be
00000360: 3e64 e03e 770f a03d e7f6 6f3d 4bfb 943e
00000370: a1e3 f93d ec2e 583e 6322 79be 13e4 7a3e
00000380: ba98 aa3b b377 b0bd e072 10be a818 0fbe
00000390: dc5b b4bd fc59 713e 6e31 8cbe 94f8 823d
000003a0: b18d c83e a48e 4dbe db92 bcbe 3fa3 8cbe
000003b0: 14f9 8a3e c5e0 5abe 5d38 6abe e5fb d03d
000003c0: a007 61be bdd8 bcbe d205 40be 8008 053e
000003d0: 7239 cebe 0abb cbbe 70e2 9b3e 282b 2abe
000003e0: d8ad 8fbd c293 83be d6a4 943e 0098 86be
000003f0: 15e9 60bd 0cde a23e 402b cebe ffa8 c0bd
