use/neuro-symbolic/pipeline/assets/checkpoints/model_fingermovements_1_seed_1.pt (torch, 44559 bytes, 26 tensors)

encoder.layers.0.weight_ih_l0 f4 [56, 28]
0.33731118 0.35236993 -0.12685016 0.19546856 0.23730966 0.07758841 0.32361403 0.29267853
0.28936386 -0.058919545 0.21023141 0.0069354163 -0.076452695 0.1604176 0.13949704 -0.08529587
-0.029533176 -0.05211287 -0.0782395 -0.14292216 0.1325971 0.046272255 -0.08556037 -0.1829639
0.159397 -0.16313213 -0.045859233 -0.23716259 0.008372817 0.07918308 0.14541927 -0.14061117
-0.04774543 -0.16399916 0.0444584 -0.097600594 0.0014276822 0.12967296 0.015467509 -0.15063082
-0.2296826 -0.03715581 0.14453931 -0.23849253 -0.09337139 -0.18929398 -0.027872391 0.021757547
-0.044421252 -0.19608606 -0.23583661 -0.2313683 -0.06404717 -0.14540812 0.09521585 -0.20413011
0.11845317 -0.15615377 -0.100108035 -0.03656051 0.20132703 0.21507254 0.28444073 0.15645893
-0.004118766 -0.13782336 0.008721216 0.22695112 0.1902827 -0.034989964 -0.1374368 -0.054142088
0.32899046 0.05250917 -0.09972314 0.07093374 -0.10885678 -0.2411554 -0.22759354 -0.0074070315
-0.07686966 -0.21234737 0.25984597 -0.22135565 -0.07607952 -0.06919033 -0.24799877 -0.030422864
0.1542819 0.15764505 -0.037416372 0.23628862 0.20874819 0.22401723 0.097400546 0.29393455
-0.08080601 -0.059910882 -0.10974409 -0.018535664 0.035724487 0.1761135 -0.026511205 0.20718423
0.00875543 -0.26701054 -0.098502815 -0.2657617 0.04482928 -0.15717845 0.26949814 -0.06314381
0.047660664 -0.013457001 -0.15424491 -0.108832054 0.20802028 -0.1699176 -0.064253494 -0.06404591
-0.29778185 0.045084406 -0.16792086 -0.117468834 -0.15969665 0.21495828 0.006379818 -0.2774006
-0.07411241 0.22382866 0.14501092 -0.24404038 -0.2226087 0.21598974 -0.0680755 -0.21018094
-0.23242907 -0.047450896 0.2325651 -0.15116504 -0.06332832 -0.16894993 -0.05348855 0.24620609
-0.20076594 -0.11639865 -0.09861281 -0.23739219 -0.22422028 0.27971968 -0.02365647 -0.23979314
0.00013434509 0.011658616 0.26728123 0.2556521 -0.18975824 0.1640983 0.19189358 0.24007016
0.20644036 -0.08763967 -0.031575482 0.22451282 0.20106398 0.15997976 -0.15166175 -0.13065146
0.08553297 -0.033302974 -0.04423116 0.23353156 0.14596847 0.14861052 0.232823 0.012708239
-0.12464444 -0.17984046 -0.0723401 0.1253515 -0.096413344 -0.18968281 0.017584693 0.23009609
0.103898376 -0.021742692 0.056732647 0.021346569 -0.063405104 0.090658955 0.07460165 -0.16984776
-0.24915552 0.090756856 -0.06729828 -0.18047974 0.009739765 0.039144512 0.08188703 0.22166923
0.12717326 0.14351454 0.347482 -0.016781762 0.22303732 -0.0786936 0.21366395 -0.053351592
-0.16537245 -0.13839999 0.28384128 -0.04647494 0.05809822 0.036311824 -0.0019183352 -0.11988171
0.00037205033 -0.016334252 -0.065580614 -0.055830587 0.27092975 0.35972708 -0.11161367 0.07794195
-0.11590062 0.16148274 -0.25763866 -0.10548636 0.16407725 -0.11082162 0.29494277 0.32038626
0.30231392 0.027102489 -0.018984498 0.20192486 0.05415529 0.13354357 0.2105726 0.12586181
-0.13482079 0.04155519 0.109565556 -0.089773744 0.112821706 0.0955787 -0.13992113 0.09832754
-0.09020477 0.32010123 0.12262361 0.010204893 -0.080909394 -0.11291538 -0.19656873 -0.15517393
00000000: 0db4 ac3e d569 b43e 02e5 01be e928 483e
00000010: 4e01 733e ace6 9e3d bdb0 a53e f6d9 953e
00000020: 8027 943e 9f55 71bd e746 573e 7d42 e33b
00000030: 3b93 9cbd 8344 243e 50d8 0e3e 9aaf aebd
00000040: 8fef f1bc 4e74 55bd 083c a0bd 305a 12be
00000050: 89c7 073e fa87 3d3d 463a afbd e35a 3bbe
00000060: f838 233e 1c0c 27be e4d6 3bbd c0da 72be
00000070: 242e 093c bd2a a23d cae8 143e 60fc 0fbe
00000080: b690 43bd 65ef 27be 031a 363d d2e2 c7bd
00000090: 1121 bb3a fdc8 043e 6f6b 7d3c f73e 1abe
000000a0: ea31 6bbe b130 18bd 1d02 143e 6337 74be
000000b0: 8039 bfbd 48d6 41be a454 e4bc e23c b23c
000000c0: 0ff3 35bd c9ca 48be 277f 71be d0eb 6cbe
000000d0: 2a2b 83bd dee5 14be 8700 c33d 7c07 51be
000000e0: 9397 f23d c6e6 1fbe 7105 cdbd 79c0 15bd
000000f0: ac28 4e3e fa3b 5c3e 37a2 913e c536 203e
00000100: b7f6 86bb 9121 0dbe 6ee3 0e3c e065 683e
00000110: 78d9 423e a351 0fbd 3cbc 0cbe 18c4 5dbd
00000120: 7071 a83e db13 573d a53b ccbd b545 913d
00000130: 4ef0 debd 71f1 76be 480e 69be afb6 f2bb
00000140: d76d 9dbd 9771 59be 880a 853e 0eab 62be
00000150: 94cf 9bbd a9b3 8dbd 64f3 7dbe 5f39 f9bc
00000160: 13fc 1d3e b46d 213e e941 19bd a5f5 713e
00000170: 16c2 553e c664 653e f079 c73d 977e 963e
00000180: 9f7d a5bd 1d65 75bd 82c1 e0bd 1bd8 97bc
00000190: d753 123d 1957 343e 072e d9bc 1a28 543e
000001a0: ef72 0f3c 9bb5 88be d8bb c9bd eb11 88be
000001b0: e89e 373d 63f3 20be a9fb 893e 8b51 81bd
000001c0: d437 433d c17a 5cbc 61f2 1dbe 57e3 debd
000001d0: 4503 553e e1fe 2dbe 5697 83bd 812a 83bd
000001e0: dd76 98be 6daa 383d 72f3 2bbe 8093 f0bd
000001f0: 8587 23be 061e 5c3e cb0d d13b 7407 8ebe
00000200: 3fc8 97bd 5733 653e be7d 143e b9e5 79be
00000210: 89f3 63be 6a2c 5d3e 2b6b 8bbd ac39 57be
00000220: e301 6ebe df5b 42bd 8c25 6e3e 02cb 1abe
00000230: 47b2 81bd 3601 2dbe cf16 5bbd 731d 7c3e
00000240: 9695 4dbe 6a62 eebd 83f5 c9bd f016 73be
00000250: 009a 65be 6b37 8f3e 37cb c1bc 558c 75be
00000260: fcde 0c39 c803 3f3c 16d9 883e d5e4 823e
00000270: fc4f 42be 6209 283e c07f 443e f4d4 753e
00000280: 1a65 533e 6d7c b3bd 4b55 01bd b0e6 653e
00000290: b7e3 4d3e bcd1 233e 384d 1bbe 7fc9 05be
000002a0: e92b af3d b368 08bd bc2b 35bd e622 6f3e
000002b0: c278 153e 5b2d 183e 2769 6e3e 3836 503c
000002c0: 9645 ffbd 1928 38be 0c27 94bd 255c 003e
000002d0: 5c74 c5bd 363c 42be c60d 903c 4f9e 6b3e
000002e0: acc8 d43d bb1d b2bc 7e60 683d 00df ae3c
000002f0: 89da 81bd 67ab b93d c0c8 983d 92ec 2dbe
00000300: a022 7fbe bbde b93d aed3 89bd aecf 38be
00000310: 8993 1f3c ff55 203d 63b4 a73d 42fd 623e
00000320: b539 023e 7af5 123e 29e9 b13e e879 89bc
00000330: e563 643e 1c2a a1bd b9ca 5a3e 3387 5abd
00000340: 6557 29be bab8 0dbe a553 913e 825c 3ebd
00000350: 66f8 6d3d b5bb 143d a670 fbba 8b84 f5bd
00000360: c00f c339 69cf 85bc 214f 86bd 9dae 64bd
00000370: 4eb7 8a3e 262e b83e b595 e4bd 07a0 9f3d
00000380: 4e5d edbd bb5b 253e 37e9 83be 3c09 d8bd
00000390: de03 283e 72f6 e2bd bd02 973e ab09 a43e
000003a0: e4c8 9a3e 0a06 de3c 6185 9bbc 64c5 4e3e
000003b0: f0d1 5d3d a5bf 083e 58a0 573e ebe1 003e
000003c0: 760e 0abe c635 2a3d e863 e03d 4cdb b7bd
000003d0: 110f e73d c4be c33d 7c47 0fbe f35f c93d
000003e0: 47bd b8bd 4fe4 a33e 1622 fb3d 6c32 273c
000003f0: d3b3 a5bd 2e40 e7bd 5049 49be eae5 1ebe

encoder.layers.0.weight_hh_l0 f4 [56, 14]
0.2849222 -0.22820239 0.22561614 -0.0010209372 0.25138324 -0.21440098 -0.12901926 0.09815796
0.3206948 -0.046307936 -0.16070603 -0.049600776 0.12973283 0.097481474 -0.021862654 -0.016663207
0.10281276 0.19476625 -0.25434193 -0.0897545 -0.0006051677 -0.1726898 -0.18501654 -0.2528849
0.20552199 -0.3132582 -0.008135587 0.17342564 0.010950674 -0.09165865 0.18879285 0.048381295
-0.2695865 -0.026205568 -0.15723333 0.04965917 -0.14606008 -0.10459455 -0.19576581 -0.009743853
0.005117659 -0.31494144 0.227605 -0.36176252 -0.1662619 0.045680914 -0.166371 -0.030775834
0.081143 -0.10548774 0.038260218 -0.18542753 0.19645847 -0.04349242 -0.11412302 -0.35191908
0.09220806 0.15691501 -0.20650735 0.10830844 -0.13653746 -0.1267911 0.23463786 0.101878315
-0.13279939 -0.014882193 0.26565853 0.13749208 -0.12742803 -0.20686895 -0.028819857 0.13045976
-0.02431408 -0.21741985 -0.19788317 -0.22556078 -0.10284891 0.2399611 -0.2506075 0.17250304
0.026021773 -0.2155006 0.11255237 0.11518647 -0.18636952 0.27234727 -0.20768629 -0.016913336
0.021642819 -0.024648078 -0.24445257 0.22902317 0.11291403 0.23427694 -0.14954208 0.24740313
0.14353833 -0.1460653 0.019848302 0.2234891 -0.12515168 -0.31164294 0.016855482 0.041104745
0.29759815 0.2570063 0.25051102 0.17003056 0.05036465 -0.1490315 -0.18869309 -0.20232658
-0.05512465 0.10535165 0.061736513 0.20261239 -0.06341448 -0.24491365 -0.11546461 -0.13565122
0.21038468 0.16773 -0.19825569 -0.017290294 -0.29012027 0.09033384 0.28337455 0.020693019
-0.008826053 -0.11705248 -0.032503966 0.26818666 0.11184517 0.057330046 -0.15557644 0.14585336
0.23860769 0.17200063 -0.09329272 -0.2946754 0.12306681 0.13038349 -0.007713191 -0.33126277
-0.17808872 -0.20007014 -0.003983215 0.26485002 0.29364005 0.21039121 0.09300858 0.09431206
0.09021144 -0.09787022 0.13132033 -0.1710215 -0.26689902 -0.019616477 -0.2577641 0.079868026
0.25769985 -0.2737574 0.21206625 -0.22200657 -0.063114375 -0.2214713 -0.008548605 -0.23071542
-0.09562077 0.09031591 0.09307504 0.15527004 -0.10328223 -0.19952554 0.22888577 -0.09341372
-0.022687115 0.14083868 0.2061314 -0.34081066 0.08130672 -0.14045466 -0.20808758 -0.09444245
0.16171941 0.14780277 -0.12727323 0.16814105 0.015236073 -0.04819558 0.16849276 0.10393822
-0.1473641 0.13435134 0.040961258 -0.13087042 -0.087859616 0.077334605 0.17394628 0.11223232
0.043203693 0.086935766 0.00045786213 -0.20332776 -0.032868322 0.014452056 -0.18104155 0.21256231
-0.12390543 -0.062296998 -0.13124287 0.1593643 0.023459235 0.06923034 0.14113231 0.037506755
-0.13884398 0.046569522 -0.20482469 0.02075362 0.0443828 -0.25992227 0.31815645 0.23226307
-0.21459633 0.005799669 -0.027948739 -0.10397364 0.04053967 -0.00990912 0.27298778 -0.17555337
0.110530004 0.027952207 0.1822602 -0.29296088 0.1837315 -0.28121147 -0.10928298 -0.075791106
0.03782024 0.10647729 -0.055242214 0.21788512 0.3452695 0.07910899 0.13521463 0.03548718
0.17801856 -0.31039882 0.2626343 0.013180897 0.015224449 0.031909976 -0.22782184 -0.19246905
00000000: 53e1 913e e3ad 69be eb07 673e f8d0 85ba
00000010: 4eb5 803e ee8b 5bbe a01d 04be 0a07 c93d
00000020: 1c32 a43e 64ad 3dbd 1f90 24be 2f2a 4bbd
00000030: afd8 043e 5ea4 c73d 4f19 b3bc 4781 88bc
00000040: 7f8f d23d ce70 473e 1b39 82be 35d1 b7bd
00000050: 1ea4 1eba 98d5 30be fa74 3dbe 217a 81be
00000060: 5b74 523e 6163 a0be 204b 05bc 7e96 313e
00000070: 756a 333c 88b7 bbbd ea52 413e 772b 463d
00000080: 3e07 8abe 0fad d6bc c601 21be 6a67 4b3d
00000090: c690 15be ab35 d6bd d576 48be aea4 1fbc
000000a0: 09b2 a73b 0140 a1be 4911 693e f038 b9be
000000b0: 8f40 2abe e91b 3b3d 295d 2abe 9a1d fcbc
000000c0: 4d2e a63d f509 d8bd bfb6 1c3d b7e0 3dbe
000000d0: 692c 493e 1c25 32bd 54b9 e9bd bd2e b4be
000000e0: 94d7 bc3d 54ae 203e aa76 53be d1d0 dd3d
000000f0: 7ad0 0bbe 87d5 01be e844 703e 94a5 d03d
00000100: 90fc 07be 71d4 73bc 6504 883e b9ca 0c3e
00000110: 7e7c 02be 74d5 53be 9f17 ecbc 3e97 053e
00000120: 522e c7bc 4fa3 5ebe e3a1 4abe 68f9 66be
00000130: 73a2 d2bd 5db8 753e a04f 80be a3a4 303e
00000140: 9d2b d53c 30ac 5cbe db81 e63d e2e6 eb3d
00000150: a7d7 3ebe 1a71 8b3e b7ab 54be d68d 8abc
00000160: 484c b13c c4ea c9bc c651 7abe 0d85 6a3e
00000170: 793f e73d 4be6 6f3e 8f21 19be 3f57 7d3e
00000180: b6fb 123e 2492 15be e898 a23c 54da 643e
00000190: c327 00be aa8f 9fbe 8214 8a3c 735d 283d
000001a0: c95e 983e 5496 833e fb42 803e 7e1c 2e3e
000001b0: 2a4b 4e3d b79b 18be c338 41be b32e 4fbe
000001c0: 63ca 61bd 9bc2 d73d 6ddf 7c3d 9f79 4f3e
000001d0: 73df 81bd a5ca 7abe b678 ecbd 27e8 0abe
000001e0: 156f 573e 6ac1 2b3e 8a03 4bbe 60a4 8dbc
000001f0: a58a 94be f300 b93d 7816 913e 6884 a93c
00000200: 269b 10bc 36b9 efbd e122 05bd c34f 893e
00000210: 150f e53d e9d2 6a3d 6e4f 1fbe 955a 153e
00000220: 9355 743e ef20 303e 4110 bfbd b2df 96be
00000230: 740a fc3d 4083 053e f0be fcbb 469b a9be
00000240: e45c 36be 30df 4cbe a185 82bb 6c9a 873e
00000250: fd57 963e cb70 573e 487b be3d ae26 c13d
00000260: c7c0 b83d 2f70 c8bd d678 063e 4320 2fbe
00000270: fda6 88be bcb2 a0bc a8f9 83be d991 a33d
00000280: 3cf1 833e ee29 8cbe e527 593e b155 63be
00000290: 1c42 81bd 5fc9 62be 730f 0cbc aa40 6cbe
000002a0: d2d4 c3bd 8cf7 b83d 209e be3d 1cff 1e3e
000002b0: a285 d3bd 6c50 4cbe 0861 6a3e b14f bfbd
000002c0: 54da b9bc 0438 103e 1c14 533e bc7e aebe
000002d0: 2384 a63d 59d3 0fbe e914 55be 0b6b c1bd
000002e0: c699 253e 9c59 173e ea53 02be 2b2d 2c3e
000002f0: b9a0 793c ba68 45bd 5e89 2c3e 90dd d43d
00000300: 9de6 16be 6693 093e fec6 273d e502 06be
00000310: beef b3bd 9b61 9e3d f91e 323e 0fda e53d
00000320: 5bf6 303d 610b b23d 370d f039 2735 50be
00000330: efa0 06bd 51c8 6c3c f562 39be efa9 593e
00000340: 21c2 fdbd 232b 7fbd 8864 06be 6530 233e
00000350: 952d c03c a3c8 8d3d fd84 103e afa0 193d
00000360: 1e2d 0ebe afbf 3e3d 90bd 51be 7f03 aa3c
00000370: bdca 353d 8814 85be 67e5 a23e 5fd6 6d3e
00000380: 24bf 5bbe 260b be3b c1f4 e4bc 22f0 d4bd
00000390: ed0c 263d dd59 22bc 0ec5 8b3e 43c4 33be
000003a0: 8e5d e23d 07fc e43c 6ba2 3a3e f8fe 95be
000003b0: 1c24 3c3e f3fa 8fbe c1cf dfbd 5e38 9bbd
000003c0: 65e9 1a3d c410 da3d a945 62bd 471d 5f3e
000003d0: 2ac7 b03e e503 a23d b475 0a3e 015b 113d
000003e0: 7f4a 363e 98ec 9ebe 0178 863e b0f4 573c
000003f0: f86f 793c 09b4 023d 214a 69be 9b16 45be

encoder.layers.0.bias_ih_l0 f4 [56]
-0.042813063 -0.23201978 0.22598359 0.042539585 -0.24859513 -0.20490718 0.14984657 0.06822046
0.29495183 0.2209405 -0.065442696 0.306232 0.3107777 0.16988249 -0.22290625 0.3262184
0.109187305 0.054096796 0.27288082 -0.18668528 0.037599634 0.25423795 0.075346716 0.13307409
0.11534563 -0.052158263 0.0560878 0.2070963 0.057809923 -0.2215503 -0.1907182 -0.28896254
-0.035318572 0.07331068 0.3742163 0.10699647 0.33354473 -0.052007183 0.07301339 0.08884992
-0.12956275 -0.0873947 0.24305208 0.24456356 0.16873753 0.3291157 -0.08274292 0.04979303
-0.09728109 0.22306027 0.3136357 -0.02815955 0.32885838 0.14665195 0.27070653 0.044190608
00000000: c05c 2fbd 9896 6dbe 3e68 673e fd3d 2e3d
00000010: b98f 7ebe 30d3 51be 6171 193e 2bb7 8b3d
00000020: ed03 973e 3a3e 623e d206 86bd 71ca 9c3e
00000030: 411e 9f3e adf5 2d3e 8941 64be 1906 a73e
00000040: 989d df3d 9a94 5d3d 09b7 8b3e 6d2a 3fbe
00000050: 1302 1a3d 7a2b 823e 614f 9a3d 9344 083e
00000060: 543a ec3d e7a3 55bd 52bc 653d 0d11 543e
00000070: 19ca 6c3d 15de 62be a24b 43be e6f2 93be
00000080: 35aa 10bd e923 963d 4799 bf3e f720 db3d
00000090: 60c6 aa3e 7c05 55bd 0b88 953d f2f6 b53d
000000a0: 19ac 04be fefb b2bd a5e2 783e df6e 7a3e
000000b0: 88c9 2c3e da81 a83e 1f75 a9bd c7f3 4b3d
000000c0: 4f3b c7bd e969 643e dc94 a03e dbae e6bc
000000d0: 2060 a83e ee2b 163e 0c9a 8a3e 3601 353d

encoder.layers.0.bias_hh_l0 f4 [56]
0.32345587 -0.084098235 0.12845209 0.11121859 -0.09825851 0.14716971 0.19146807 0.18607159
0.13864756 0.28385434 0.12505947 0.288426 0.071933575 0.27183187 -0.006144804 -0.15891877
-0.14362264 0.15391901 0.0640048 -0.0419965 -0.07211528 -0.0035714603 0.11651074 0.2781447
0.20968023 0.0811998 0.1830445 -0.17754377 -0.16856688 -0.27957293 -0.08207124 -0.012845482
0.21093099 0.118801065 0.11301534 0.13018718 -0.017894652 0.29967415 -0.1201248 0.19318907
0.31980178 0.16230986 0.122580804 0.25822985 0.1633089 0.24841064 0.29105487 -0.23722082
0.15091664 -0.22129774 0.088581905 0.27888578 0.2764232 0.06321487 0.09423318 0.2990529
00000000: 029c a53e b23b acbd f288 033e 92c6 e33d
00000010: c23b c9bd a8b3 163e 3510 443e 8d89 3e3e
00000020: a0f9 0d3e 5b55 913e 970f 003e 93ac 933e
00000030: e951 933d 8c2d 8b3e 5a5a c9bb 9abb 22be
00000040: d011 13be f29c 1d3e f314 833d 8604 2cbd
00000050: 2db1 93bd 290f 6abb 2f9d ee3d fb68 8e3e
00000060: 6ab6 563e 154c a63d 0470 3b3e 09ce 35be
00000070: cc9c 2cbe 2f24 8fbe f714 a8bd db75 52bc
00000080: 4bfe 573e f94d f33d 9674 e73d ca4f 053e
00000090: ce97 92bc e46e 993e fe03 f6bd 5bd3 453e
000000a0: 0fbd a33e 8e34 263e a50b fb3d b436 843e
000000b0: 733a 273e 5c5f 7e3e 2505 953e 04ea 72be
000000c0: e489 1a3e e09b 62be 6e6a b53d 1eca 8e3e
000000d0: 5787 8d3e cc76 813d 53fd c03d 761d 993e

encoder.layers.1.weight_ih_l0 f4 [28, 14]
-0.09498919 0.028008256 0.092375636 -0.27972987 -0.24302404 -0.10106167 0.44511253 0.27629116
0.3355311 0.12671548 0.033607867 -0.2889253 0.22053763 -0.21986261 0.09477235 0.18993293
0.27705544 -0.22731742 0.30080858 0.23612991 -0.13660207 -0.13802357 0.38465005 0.37526566
0.24864435 0.37941635 0.25786972 0.086465634 0.47091463 0.055895597 0.3918209 -0.092001714
-0.10728572 0.2453235 0.54240847 0.4675224 0.28802174 0.23796123 0.5054488 0.017660758
-0.13439515 -0.115017354 0.41679886 -0.11243245 0.14474942 -0.15183347 -0.27312648 -0.30459884
0.26418254 0.51677805 -0.16954799 0.28152317 0.03632551 0.26783103 0.1457121 -0.0163449
0.13445109 -0.22820182 0.4898943 -0.32039455 -0.029735446 0.191437 0.28914276 0.5472952
0.066433094 0.16621064 -0.15392418 -0.46851167 0.53939605 -0.38961393 -0.020447792 -0.12475046
0.24203336 0.17040612 -0.117234886 0.04174082 -0.05396641 0.101618424 -0.12644887 0.10421877
0.38370383 -0.25922394 -0.031700276 0.2689469 0.0728728 -0.5023037 0.3381869 -0.49385232
-0.18881874 -0.03856707 -0.14336163 0.43940625 0.48497653 0.29418448 0.1603546 -0.10660424
0.4667451 0.109611005 0.31893983 0.08912675 -0.18023892 0.08570639 0.19247364 -0.20457605
0.5074276 0.30357584 0.3773373 -0.10229228 0.094596215 0.259282 0.057114337 -0.29124898
0.13448058 0.3975645 0.33325768 -0.04227278 0.21128955 0.33938476 0.48745298 0.03813038
0.19874302 0.027841484 -0.07176305 -0.27431557 0.10110862 0.0330984 0.095250934 -0.34974968
0.3829968 -0.04848636 -0.10675829 -0.33899352 -0.029602602 0.13603863 -0.02149012 0.09213753
0.10091675 -0.08958364 -0.26817656 -0.14367296 -0.13754927 -0.18630682 0.33925655 -0.35768336
0.013602411 -0.26825997 0.07480393 -0.067628175 0.45255774 0.011441372 -0.22490092 -0.2955113
0.40843526 -0.38283026 -0.13701637 -0.4323702 -0.09665287 -0.4915482 -0.06354951 -0.3366524
0.34894672 -0.23220414 0.0043771053 0.041603755 0.47060713 -0.53509873 0.5181413 -0.058381796
0.0052884454 -0.021237725 -0.46045452 0.2827839 -0.028438123 0.14802985 0.10910336 -0.25139377
0.17745787 0.284346 -0.09323377 -0.36367497 0.13535947 0.32243243 0.11734056 -0.14967623
-0.29753354 -0.51037645 -0.06029003 -0.353183 0.13996595 0.088436335 0.09106826 0.0777013
0.4939939 -0.05344657 -0.18691777 -0.18113923 0.42226824 0.23610719 0.34817436 -0.054367695
0.07686772 0.31489316 0.42996353 -0.15518299 0.37836447 -0.022960871 0.003770968 0.4397992
0.07380517 -0.46222317 0.5383311 -0.15113448 0.3628849 -0.3277592 -0.15269895 0.29708546
0.40578854 0.41761982 0.23355086 -0.18298873 -0.1387166 0.4998593 -0.33606258 -0.316835
-0.04516445 -0.057945635 -0.10264289 -0.12065884 0.19385277 -0.14015143 0.38029617 0.23435797
0.55610853 0.40560758 0.014846542 0.2839319 -0.5094841 0.1380092 -0.31381863 0.38532805
-0.5242382 0.50239515 -0.1723507 0.30923975 0.0056555388 -0.3190043 0.058928046 -0.29026857
-0.14811246 0.15148158 -0.094775744 -0.17376852 -0.24390496 -0.33325994 -0.24827668 0.14009802
00000000: b189 c2bd 9271 e53c 702f bd3d c138 8fbe
00000010: 4bdb 78be 6cf9 cebd cae5 e33e 0976 8d3e
00000020: bbca ab3e b4c1 013e 67a8 093d 04ee 93be
00000030: 9ed4 613e aa23 61be 0118 c23d c77d 423e
00000040: 36da 8d3e e6c5 68be 9503 9a3e 0acc 713e
00000050: 6ae1 0bbe 0d56 0dbe daf0 c43e d222 c03e
00000060: a09c 7e3e dc42 c23e 8007 843e e514 b13d
00000070: b91b f13e c8f2 643d c09c c83e 656b bcbd
00000080: 9eb8 dbbd 1536 7b3e 48db 0a3f 195f ef3e
00000090: 9677 933e 1cac 733e 1865 013f 4bad 903c
000000a0: e29e 09be 388e ebbd a966 d53e fc42 e6bd
000000b0: 3139 143e 3c7a 1bbe 3cd7 8bbe 61f4 9bbe
000000c0: ef42 873e 914b 043f fd9d 2dbe ce23 903e
000000d0: 0fca 143d 2621 893e 8e35 153e bde5 85bc
000000e0: 8cad 093e bdad 69be 6dd3 fa3e c10a a4be
000000f0: c097 f3bc 1008 443e 850a 943e 8a1b 0c3f
00000100: 130e 883d 1f33 2a3e 4d9e 1dbe c3e0 efbe
00000110: dc15 0a3f 7a7b c7be 2182 a7bc 2b7d ffbd
00000120: 98d7 773e f17e 2e3e d818 f0bd 6cf8 2a3d
00000130: e20b 5dbd 521d d03d d07b 01be a770 d53d
00000140: d474 c43e 00b9 84be 26d8 01bd 68b3 893e
00000150: 563e 953d fa96 00bf d526 ad3e 36da fcbe
00000160: b359 41be 81f8 1dbd 64cd 12be dbf9 e03e
00000170: d84e f83e 599f 963e ff33 243e 5353 dabd
00000180: 37f9 ee3e bc7b e03d 154c a33e 1688 b63d
00000190: 8d90 38be d586 af3d cf17 453e 627c 51be
000001a0: c6e6 013f 4b6e 9b3e 5b32 c13e 9d7e d1bd
000001b0: a9bb c13d 9cc0 843e b9f0 693d 961e 95be
000001c0: 47b5 093e 938d cb3e c0a0 aa3e 3926 2dbd
000001d0: 4a5c 583e d7c3 ad3e 7093 f93e 9a2e 1c3d
000001e0: 4a83 4b3e d313 e43c 82f8 92bd 1773 8cbe
000001f0: 0912 cf3d 3092 073d ec12 c33d 6412 b3be
00000200: 2818 c43e a299 46bd 17a4 dabd 8f90 adbe
00000210: 2881 f2bc b64d 0b3e 0c0c b0bc 9ab2 bc3d
00000220: 71ad ce3d a177 b7bd 704e 89be 011f 13be
00000230: b7d9 0cbe 37c7 3ebe 09b3 ad3e 4622 b7be
00000240: a6dc 5e3c 5f59 89be ce32 993d a480 8abd
00000250: a6b5 e73e 9874 3b3c 6d4c 66be 424d 97be
00000260: 6d1e d13e 5402 c4be 054e 0cbe a05f ddbe
00000270: f1f1 c5bd 35ac fbbe 3f26 82bd b45d acbe
00000280: 25a9 b23e ecc6 6dbe d26d 8f3b b368 2a3d
00000290: 6bf3 f03e 3bfc 08bf e9a4 043f c021 6fbd
000002a0: b24a ad3b bdfa adbc b2c0 ebbe 0dc9 903e
000002b0: 11f7 e8bc 2395 173e 9571 df3d afb6 80be
000002c0: 84b7 353e cd95 913e 59f1 bebd 9b33 babe
000002d0: ac9b 0a3e dd15 a53e 3f50 f03d ba44 19be
000002e0: 5156 98be 08a8 02bf aef2 76bd 67d4 b4be
000002f0: 3c53 0f3e 1c1e b53d ff81 ba3d dc21 9f3d
00000300: c5ec fc3e caea 5abd 5f67 3fbe 907c 39be
00000310: 8b33 d83e 15c6 713e e943 b23e a9b0 5ebd
00000320: d36c 9d3d ad39 a13e 2e24 dc3e 4ae8 1ebe
00000330: fdb8 c13e 7018 bcbc 5822 773b 5c2d e13e
00000340: 2a27 973d 84a8 ecbe 11d0 093f ffc2 1abe
00000350: 0dcc b93e 0ed0 a7be 1d5d 1cbe 961b 983e
00000360: 84c3 cf3e 44d2 d53e f527 6f3e 6661 3bbe
00000370: b90b 0ebe 8fed ff3e 6510 acbe 3238 a2be
00000380: 5cfe 38bd 6758 6dbd 6f36 d2bd fb1b f7bd
00000390: 5781 463e db83 0fbe 2eb6 c23e 89fb 6f3e
000003a0: 215d 0e3f ccab cf3e e93e 733c 865f 913e
000003b0: 8d6d 02bf 4952 0d3e d6ac a0be b849 c53e
000003c0: 7a34 06bf f89c 003f b47c 30be ac54 9e3e
000003d0: 1952 b93b 8854 a3be 895e 713d 159e 94be
000003e0: cbaa 17be fd1d 1b3e c919 c2bd 60f0 31be
000003f0: 39c2 79be 0ca1 aabe 3e3c 7ebe db75 0f3e

encoder.layers.1.weight_hh_l0 f4 [28, 7]
-0.10377871 0.26705492 0.43234316 -0.0021172652 0.14067894 0.19720095 0.24371073 -0.059139173
0.4993682 0.27391472 -0.17066003 -0.24372382 -0.27567485 -0.053225957 0.29071155 -0.13884656
0.19306096 -0.43378052 -0.039374936 0.32635918 0.10360367 -0.22075613 -0.046647947 0.14448698
0.0466025 0.070174016 -0.011671768 0.0077006053 -0.26226494 0.16211931 0.0822667 0.19236644
-0.08351897 -0.21151362 -0.086620934 0.19756787 -0.084112495 0.30993888 0.07677822 0.32387516
0.20408201 -0.009988512 -0.110022366 0.45961922 -0.10831759 0.025418289 -0.13004243 -0.13435017
0.312588 0.08972621 0.4699735 -0.0047244197 0.17626017 -0.093556575 0.15997358 0.27540663
0.5029316 0.414851 -0.16602747 -0.289514 -0.5142503 0.06900185 -0.26986468 -0.19813398
0.45460832 0.14319788 0.04973741 0.2059268 0.30303997 -0.3863505 -0.021754846 0.30461773
-0.3035107 0.11812648 -0.15261632 0.03518936 0.08239461 -0.012549359 0.13837557 -0.26393944
-0.43413836 -0.2005729 0.20071883 0.13360262 -0.44248125 -0.059050243 0.019823328 0.20582667
0.4361736 0.4253759 0.11881275 -0.026644133 0.32283422 0.011158645 0.21405426 0.22477092
0.1214065 -0.044409502 -0.11797767 0.31145325 -0.20908824 -0.10984302 0.15115346 0.14085676
-0.057377636 -0.05146831 -0.23237444 0.0628382 -0.35490972 -0.054105368 -0.13862634 -0.08523083
-0.25195855 0.39489308 0.3317514 -0.2980285 -0.46913058 -0.052516636 -0.08405046 -0.03811356
-0.030870851 0.030123055 -0.0468458 -0.18382928 0.21469578 0.3316323 0.23279217 -0.064336464
0.2368125 0.107656434 0.08190738 0.015701935 0.4259386 -0.4543964 0.23303276 -0.27141196
-0.16211687 -0.09204877 -0.0029699786 -0.03150915 -0.43172562 -0.014517269 0.16851473 0.25891095
0.14272347 -0.14104207 0.075642966 0.37701935 0.25329897 0.34471616 0.2331782 0.018916804
0.11297202 -0.22872144 0.16112073 0.53023964 0.016166596 -0.030597648 -0.47394457 0.2998969
0.04094795 0.40204558 0.26972157 0.49650794 -0.44500947 -0.3716788 0.32426473 -0.29834557
-0.15257815 0.47279096 -0.16886654 0.053448405 -0.1805165 -0.0754419 -0.29385278 -0.2704598
-0.31687802 0.18745314 -0.12031705 -0.027389918 0.5039701 0.13910627 0.05933241 -0.24088527
-0.10607686 -0.13792235 -0.18789662 0.38095048 -0.04663362 -0.2308671 0.299733 0.05382659
-0.42874846 -0.2450694 -0.045350242 -0.3745077
00000000: ef89 d4bd 6cbb 883e 155c dd3e d1c1 0abb
00000010: 240e 103e 0cef 493e 4e8f 793e eb3b 72bd
00000020: 30ad ff3e 8d3e 8c3e 81c1 2ebe bd92 79be
00000030: 4125 8dbe 7603 5abd 25d8 943e cb2d 0ebe
00000040: c6b1 453e 7b18 debe 9d47 21bd 8d18 a73e
00000050: 292e d43d e50d 62be eb11 3fbd 65f4 133e
00000060: 43e2 3e3d 65b7 8f3d f13a 3fbc 5c55 fc3b
00000070: 9747 86be 9b02 263e 727b a83d b5fb 443e
00000080: fe0b abbd 0797 58be 5166 b1bd 3b4f 4a3e
00000090: 2c43 acbd 4fb0 9e3e e63d 9d3d f7d2 a53e
000000a0: e0fa 503e dba6 23bc 6853 e1bd 3653 eb3e
000000b0: 9dd5 ddbd 043a d03c d829 05be 1793 09be
000000c0: 890b a03e 60c2 b73d 5ea0 f03e 4ecf 9abb
000000d0: 8c7d 343e 979a bfbd 1dd0 233e 1902 8d3e
000000e0: 20c0 003f 5a67 d43e 1b03 2abe 2e3b 94be
000000f0: e8a5 03bf d850 8d3d b42b 8abe a2e3 4abe
00000100: 6cc2 e83e 77a2 123e 74b9 4b3d 7ade 523e
00000110: 0e28 9b3e bccf c5be 3837 b2bc dbf6 9b3e
00000120: c165 9bbe 4cec f13d 7447 1cbe b822 103d
00000130: 81be a83d d49b 4dbc 53b2 0d3e 1223 87be
00000140: 6247 debe fb62 4dbe 3d89 4d3e 20cf 083e
00000150: e78c e2be abde 71bd 8864 a23c 3ac4 523e
00000160: 2552 df3e dfca d93e 1954 f33d cc44 dabc
00000170: 874a a53e c0d2 363c 0a31 5b3e 592a 663e
00000180: f9a3 f83d bde6 35bd 479e f1bd cd76 9f3e
00000190: 3a1b 56be 61f5 e0bd f9c7 1a3e c13c 103e
000001a0: d004 6bbd 6fd0 52bd 91f3 6dbe 50b1 803d
000001b0: bab6 b5be 979d 5dbd 10f4 0dbe 808d aebd
000001c0: b600 81be 6d2f ca3e 52db a93e 3197 98be
000001d0: e231 f0be af1b 57bd a622 acbd f71c 1cbd
000001e0: dee4 fcbc a0c4 f63c 62e1 3fbd be3d 3cbe
000001f0: 36d9 5b3e b5cb a93e 1261 6e3e d6c2 83bd
00000200: fa7e 723e fa7a dc3d 0ebf a73d 58a1 803c
00000210: a014 da3e a5a6 e8be 24a0 6e3e 82f6 8abe
00000220: f701 26be 1184 bcbd f9a3 42bb bd0f 01bd
00000230: 240b ddbe d7d9 6dbc 208f 2c3e fa8f 843e
00000240: 1a26 123e 556d 10be b3ea 9a3d ae08 c13e
00000250: 67b0 813e a37e b03e 44c6 6e3e 6af7 9a3c
00000260: e05d e73d f435 6abe d5fc 243e c9bd 073f
00000270: cf6f 843c eba7 fabc dda8 f2be 168c 993e
00000280: 0ab9 273d ebd8 cd3e f218 8a3e 4a36 fe3e
00000290: 48d8 e3be af4c bebe 0706 a63e c0c0 98be
000002a0: 723d 1cbe a811 f23e 5aeb 2cbe b7ec 5a3d
000002b0: 51d9 38be 4881 9abd df73 96be b579 8abe
000002c0: d63d a2be b7f3 3f3e c968 f6bd d260 e0bc
000002d0: 2f04 013f e071 0e3e 8b06 733d a1aa 76be
000002e0: d33e d9bd 843b 0dbe f967 40be f10b c33e
000002f0: e502 3fbd 6d68 6cbe 9b76 993e 4579 5c3d
00000300: eb84 dbbe 79f3 7abe 2dc1 39bd 79bf bfbe

encoder.layers.1.bias_ih_l0 f4 [28]
0.22718017 0.030638793 0.11708361 0.11569719 0.28615203 -0.12126115 0.23630029 0.115414314
0.11175642 -0.21579489 0.16860086 0.06901124 -0.26725632 0.14353076 0.20249249 0.2471962
0.18032381 -0.009328186 -0.09699061 0.17388763 0.12923649 0.17360261 0.5759514 0.04946001
0.27258426 0.1016112 0.24014781 0.48747155
00000000: eba1 683e 35fe fa3c 88c9 ef3d a6f2 ec3d
00000010: 8582 923e c457 f8bd b4f8 713e 575e ec3d
00000020: 8de0 e43d 56f9 5cbe b4a5 2c3e c455 8d3d
00000030: d2d5 88be baf9 123e 315a 4f3e 0021 7d3e
00000040: cea6 383e 3fd5 18bc 03a3 c6bd 990f 323e
00000050: 9256 043e e2c4 313e 8d71 133f 9496 4a3d
00000060: 2a90 8b3e 8819 d03d 4fe9 753e df95 f93e

encoder.layers.1.bias_hh_l0 f4 [28]
-0.17784269 -0.14209256 0.2435584 -0.08241259 0.4293842 -0.108147 0.41257185 0.021348504
0.3159115 -0.18592422 0.5202605 -0.23659801 0.073431276 -0.15905534 -0.1913647 0.15094876
0.071242355 -0.4297561 -0.26636794 0.12410295 -0.3449575 0.479207 0.026926327 0.20980372
0.05986993 0.2894627 -0.13916689 0.44126898
00000000: 651c 36be b680 11be 6067 793e efc7 a8bd
00000010: 3fd8 db3e 2d7c ddbd 9e3c d33e 0fe3 ae3c
00000020: 27bf a13e eb62 3ebe cb2f 053f c046 72be
00000030: 2363 963d 67df 22be 1cf5 43be 5092 1a3e
00000040: 83e7 913d fe08 dcbe 6161 88be b029 fe3d
00000050: 459e b0be 9f5a f53e 9a94 dc3c c9d6 563e
00000060: 2c3a 753d 7434 943e c481 0ebe 02ee e13e

encoder.layers.2.weight_ih_l0 f4 [20, 7]
0.53374094 0.0024598164 0.38008332 -0.30118644 -0.52686024 -0.18228057 -0.11534482 0.089598164
0.07017062 -0.038923666 -0.0035839016 -0.07594398 0.14046115 0.054376725 -0.13073693 0.2986977
0.48896816 -0.34431744 0.21677189 0.13117585 -0.016268944 0.6058903 -0.09819896 0.013784782
0.009115757 -0.3801653 0.4314331 0.09743174 0.13677384 0.49430528 0.58005905 -0.0032016218
-0.2681802 -0.30466756 0.29045302 0.10283952 0.11692454 0.19849229 -0.031770624 0.25457948
-0.17286116 -0.22310244 -0.0723342 0.053375553 -0.010513834 -0.12441504 0.15668204 0.17481053
-0.20767695 0.42873585 0.28604 -0.035591807 0.037247337 0.47221687 0.41801792 -0.17086439
0.36450517 0.19078198 0.17615493 0.13750206 -0.33329538 -0.1723575 -0.28791803 0.22303955
0.43122002 -0.15274593 -0.58871245 0.24476132 0.013750945 0.18462826 0.2343232 0.41376287
0.2664556 0.14424247 -0.6149664 -0.32998922 0.038454574 0.33562157 0.38676417 -0.18255815
-0.16664861 -0.57729095 -0.29157576 0.0800948 -0.051915966 0.51692486 0.4749584 -0.54821825
-0.12133202 -0.27531174 -0.4977769 0.47611406 0.050930794 0.20999038 0.05440215 -0.6202444
-0.16330907 -0.35799012 0.22699332 0.2029099 0.5797109 -0.4843285 -0.42739594 0.02309997
-0.29023996 0.07683021 -0.09594023 0.36108974 -0.3122667 0.008588565 0.24081689 -0.5448924
-0.054717828 0.13864821 0.11390724 -0.44071665 -0.2376718 0.50453085 0.3418688 0.0011462927
0.49301907 -0.05217151 -0.53319836 0.2516959 -0.23389937 0.1038165 0.46003488 0.5115987
0.20912959 -0.501243 0.2285445 -0.1072874 0.12030782 0.26238504 0.16906348 -0.020823332
0.017518155 -0.055321958 -0.3229155 0.029132318
00000000: 3fa3 083f df34 213b 489a c23e 1c35 9abe
00000010: 50e0 06bf c2a7 3abe e839 ecbd 3e7f b73d
00000020: 9db5 8f3d 6c6e 1fbd e4df 6abb 8488 9bbd
00000030: 0cd5 0f3e 21ba 5e3d e7df 05be e8ee 983e
00000040: 095a fa3e 604a b0be 73f9 5d3e f652 063e
00000050: 7346 85bc a01b 1b3f 891c c9bd 91d9 613c
00000060: 425a 153c 07a5 c2be cde4 dc3e 4b8a c73d
00000070: 710e 0c3e 9515 fd3e c07e 143f 4dd2 51bb
00000080: ea4e 89be 63fd 9bbe 42b6 943e 879d d23d
00000090: 2276 ef3d 9041 4b3e ea21 02bd 3e58 823e
000000a0: 8402 31be f774 64be f423 94bd 53a0 5a3d
000000b0: 3742 2cbc 50cd febd 4271 203e 8801 333e
000000c0: 44a9 54be 4483 db3e d673 923e b7c8 11bd
000000d0: aa90 183d 69c6 f13e 7206 d63e 13f7 2ebe
000000e0: 6ca0 ba3e 5a5c 433e f561 343e 57cd 0c3e
000000f0: b1a5 aabe 7c7e 30be fe69 93be 7b64 643e
00000100: dfc8 dc3e 6e69 1cbe dcb5 16bf b6a2 7a3e
00000110: a54b 613c 310f 3d3e 6cf2 6f3e bad8 d33e
00000120: de6c 883e 4cb4 133e 706e 1dbf 59f4 a8be
00000130: 8b82 1d3d 97d6 ab3e f405 c63e 86f0 3abe
00000140: efa5 2abe 57c9 13bf 6b49 95be be08 a43d
00000150: d6a5 54bd 3055 043f bf2d f33e 0858 0cbf
00000160: ec7c f8bd a9f5 8cbe 9ddc febe 39c5 f33e
00000170: cf9c 503d b807 573e cad4 5e3d 56c8 1ebf
00000180: 7e3a 27be 7b4a b7be f070 683e 9dc7 4f3e
00000190: ef67 143f e8f9 f7be a4d3 dabe 263c bd3c
000001a0: 559a 94be 2859 9d3d 507c c4bd c1e0 b83e
000001b0: 6ce1 9fbe 0db7 0c3c b498 763e 117e 0bbf
000001c0: cd1f 60bd ccf9 0d3e 3348 e93d 9da5 e1be
000001d0: 3d60 73be ef28 013f 6d09 af3e 333f 963a
000001e0: ff6c fc3e cbb1 55bd b07f 08bf 49de 803e
000001f0: 5183 6fbe bf9d d43d b189 eb3e 22f8 023f
00000200: 1126 563e 7651 00bf 9207 6a3e 7fb9 dbbd
00000210: f263 f63d 5557 863e fa1e 2d3e b195 aabc
00000220: 3c82 8f3c 4799 62bd 2e55 a5be e6a6 ee3c

encoder.layers.2.weight_hh_l0 f4 [20, 5]
0.48396388 0.33518976 -0.45684522 -0.20695943 0.43030322 -0.21209505 -0.44504982 -0.20122074
0.13686639 0.25300503 0.27707416 0.39335275 -0.1672902 -0.1155697 0.3098457 0.06891315
0.30746868 -0.52006596 -0.3828073 -0.010382986 0.2818544 -0.031385317 0.089275606 -0.32652044
-0.25182185 0.5899579 0.47236505 0.2932497 -0.27925456 -0.21400736 0.32645142 0.3134036
0.30153623 -0.24999471 0.30007154 -0.3337355 -0.03228007 0.027493976 -0.07750573 0.025092011
-0.22020933 0.16991761 -0.12205547 0.3879578 -0.19154732 0.039706822 -0.46317366 -0.22145881
0.4044003 0.19014972 0.2003378 0.2594091 -0.18835546 0.39540786 0.009413708 0.085927956
-0.0826373 0.16700272 0.55247396 0.31367773 -0.11633849 -0.0030663735 0.4516564 0.5563037
-0.028020384 -0.13111241 0.13914056 0.23741208 0.31576923 0.32968345 0.32558292 0.25537437
0.33666283 0.342251 0.45941383 0.20188804 0.48909247 0.2415586 0.17436303 0.41591695
0.058377855 -0.4892277 0.124569565 -0.25370657 0.22286634 0.106657416 -0.17763352 0.1453224
0.031550176 -0.3415777 -0.12331399 -0.42554083 -0.19655204 -0.18166551 -0.24048157 0.16716544
0.1847541 0.45871943 0.12348506 0.0069899336
00000000: 1dca f73e fe9d ab3e 9ee7 e9be 2ced 53be
00000010: b450 dc3e 722f 59be 92dd e3be cf0c 4ebe
00000020: b426 0c3e e089 813e aadc 8d3e 8865 c93e
00000030: 1f4e 2bbe cfaf ecbd 18a4 9e3e 5622 8d3d
00000040: 896c 9d3e 0b23 05bf 52ff c3be 661d 2abc
00000050: 384f 903e e48d 00bd 21d6 b63d b02d a7be
00000060: cbee 80be 7b07 173f d5d9 f13e d324 963e
00000070: 74fa 8ebe bf24 5bbe a424 a73e 7076 a03e
00000080: f562 9a3e 9dfe 7fbe faa2 993e 61df aabe
00000090: 1b38 04bd 0c3b e13c 53bb 9ebd c38d cd3c
000000a0: 8e7e 61be e2fe 2d3e 38f8 f9bd 68a2 c63e
000000b0: fb24 44be 9fa3 223d 1925 edbe 19c6 62be
000000c0: 8e0d cf3e 9cb6 423e 5a25 4d3e 45d1 843e
000000d0: 41e0 40be e672 ca3e f43b 1a3c fffa af3d
000000e0: bf3d a9bd c302 2b3e ef6e 0d3f 5e9a a03e
000000f0: e042 eebd 36f5 48bb 823f e73e eb69 0e3f
00000100: 018b e5bc 5542 06be dd7a 0e3e 271c 733e
00000110: 81ac a13e 45cc a83e ceb2 a63e 6ec0 823e
00000120: 125f ac3e 863b af3e 4a38 eb3e bdbb 4e3e
00000130: 546a fa3e 235b 773e 398c 323e 11f3 d43e
00000140: 9e1d 6f3d 0e7c fabe 541e ff3d d4e5 81be
00000150: 1337 643e 346f da3d 90e5 35be 65cf 143e
00000160: c23a 013d 46e3 aebe 0c8c fcbd 7de0 d9be
00000170: f044 49be 8606 3abe cd40 76be 6b2d 2b3e
00000180: 2e30 3d3e 46dd ea3e bce5 fc3d d00b e53b

encoder.layers.2.bias_ih_l0 f4 [20]
0.13833942 0.05587534 0.17693073 0.2914546 0.041780993 0.13548538 -0.33477956 0.014632086
0.088551246 0.45896202 0.5888848 -0.17879148 0.049997374 0.09663925 0.25200725 0.6347846
0.54398054 -0.20508347 0.19915746 0.004072073
00000000: d9a8 0d3e 8add 643d 542d 353e 8a39 953e
00000010: 8c22 2b3d aebc 0a3e 3a68 abbe 6bbb 6f3c
00000020: 5b5a b53d 12fd ea3e 27c1 163f 1d15 37be
00000030: 0cca 4c3d cdea c53d 1807 813e 3e81 223f
00000040: 4f42 0b3f 6701 52be efef 4b3e 066f 853b

encoder.layers.2.bias_hh_l0 f4 [20]
0.25510976 0.052705266 0.08863919 0.466699 0.30885616 0.09273055 0.38477793 -0.194819
-0.002805074 0.27355665 0.2255665 0.30847397 -0.25259557 0.055708658 -0.1525609 0.32366315
-0.28481835 -0.19904406 -0.23048718 0.25966066
00000000: bf9d 823e 7ae1 573d 7788 b53d 2cf3 ee3e
00000010: 6522 9e3e 84e9 bd3d 9d01 c53e a27e 47be
00000020: 55d5 37bb 9e0f 8c3e e8fa 663e 4df0 9d3e
00000030: 3554 81be c32e 643d ed38 1cbe 2db7 a53e
00000040: b6d3 91be 35d2 4bbe d504 6cbe 3ef2 843e

decoder.layers.0.weight_ih_l0 f4 [28, 5]
0.33033395 0.034217507 0.09149156 0.12702325 0.097687654 0.2541645 0.38163325 0.270814
0.14386928 0.2054953 0.10683727 -0.1319878 0.5575096 0.31075493 0.43899134 0.38863957
-0.19283786 0.253601 -0.013071998 0.45756492 0.26660272 0.47568712 0.20602958 -0.055805683
-0.03708778 0.12666388 0.2497025 -0.15754078 -0.08439139 0.3014149 0.007623351 0.278077
0.09781175 0.34122646 -0.06150226 -0.1793233 0.038404897 0.14630345 0.36566222 0.46918976
0.056148056 0.28843895 0.39740175 0.28538236 0.10298496 0.26237935 0.44678304 0.15096402
0.33663425 0.14831279 0.40708405 0.26134986 0.058088757 -0.035000134 0.05330323 0.1590435
-0.19946176 0.42450532 0.22380307 0.3225147 -0.1874851 -0.027781721 -0.055393696 0.49121398
0.23540771 0.085690305 -0.08405724 -0.1331544 0.17835705 0.11750933 -0.22531144 0.102682896
-0.16717234 -0.16938032 -0.27345055 0.41156638 0.47629234 0.25330305 0.45825037 0.16138792
-0.39281428 -0.07922498 -0.206658 0.03403206 -0.068274625 0.09248837 -0.4684047 -0.34564337
-0.23316574 0.0060310154 -0.22163604 -0.3130838 -0.40704903 -0.38707808 -0.49932194 0.037810244
0.39344543 -0.16953498 0.40813607 0.34775776 -0.3875996 -0.05727928 -0.44666794 0.18607923
-0.11840725 0.24463193 -0.15211366 -0.008565049 -0.11770514 0.4570713 -0.15806055 -0.013708083
-0.03248023 0.42306557 0.15932448 0.40758348 0.15492745 -0.15048885 0.052528623 0.08919696
0.019814664 -0.11994357 0.34292662 0.24533427 0.008345836 0.15064381 -0.03973959 0.38726458
-0.13922523 -0.18782939 0.36995363 0.19310695 -0.22690524 0.305868 0.3588788 0.2945916
0.27369127 -0.18185514 0.2512496 -0.022731934
00000000: 8821 a93e a827 0c3d ed5f bb3d 6212 023e
00000010: 7710 c83d d921 823e 6f65 c33e 22a8 8a3e
00000020: 7852 133e 5c6d 523e 80cd da3d cf27 07be
00000030: f3b8 0e3f 451b 9f3e 79c3 e03e c4fb c63e
00000040: 4a77 45be fed7 813e ef2b 56bc f345 ea3e
00000050: 2780 883e 438d f33e 6bf9 523e 8094 64bd
00000060: 5be9 17bd 2db4 013e 03b2 7f3e 5f52 21be
00000070: 65d5 acbd 0e53 9a3e 4ecd f93b 1c60 8e3e
00000080: 8751 c83d 3cb5 ae3e cbe9 7bbd 87a0 37be
00000090: 744e 1d3d 92d0 153e 1438 bb3e a439 f03e
000000a0: 81fb 653d 45ae 933e 3e78 cb3e a31d 923e
000000b0: c7e9 d23d 9656 863e bfc0 e43e 5096 1a3e
000000c0: 535b ac3e 4fdf 173e 526d d03e a6cf 853e
000000d0: 7aee 6d3d 4d5c 0fbd 7d54 5a3d 4ddc 223e
000000e0: b43f 4cbe c358 d93e a22c 653e a620 a53e
000000f0: 18fc 3fbe 7e96 e3bc 80e4 62bd 6680 fb3e
00000100: b80e 713e 667e af3d 3426 acbd a159 08be
00000110: 3ba3 363e bba8 f03d 0bb8 66be 694b d23d
00000120: 3a2f 2bbe 0972 2dbe b601 8cbe d4b8 d23e
00000130: 97dc f33e f0b0 813e cb9f ea3e e042 253e
00000140: f41e c9be b540 a2bd 289e 53be 3465 0b3d
00000150: 91d3 8bbd 8b6a bd3d bed2 efbe 2bf8 b0be
00000160: 00c3 6ebe d39f c53b 8ff4 62be 854c a0be
00000170: bb68 d0be 192f c6be 20a7 ffbe eade 1a3d
00000180: ae71 c93e 949a 2dbe 36f7 d03e 4e0d b23e
00000190: 7473 c6be ae9d 6abd a9b1 e4be 8e8b 3e3e
000001a0: 807f f2bd cb80 7a3e afc3 1bbe 6b54 0cbc
000001b0: 640f f1bd 4005 ea3e a0da 21be de97 60bc
000001c0: fd09 05bd 0d9c d83e f525 233e c8ae d03e
000001d0: 4da5 1e3e c019 1abe 4128 573d e5ac b63d
000001e0: 5d52 a23c f9a4 f5bd 1494 af3e e838 7b3e
000001f0: f9bc 083c 5f42 1a3e fbc5 22bd 8b47 c63e
00000200: 0f91 0ebe 5956 40be 906a bd3e d4bd 453e
00000210: d959 68be bb9a 9c3e f6be b73e b6d4 963e
00000220: 4321 8c3e 3c38 3abe caa3 803e 5238 babc

decoder.layers.0.weight_hh_l0 f4 [28, 7]
0.042132813 0.44048694 -0.30963436 -0.34064686 -0.156301 -0.045116693 -0.19168705 -0.06920325
0.2123986 -0.3514104 -0.4348986 -0.3710981 0.27017626 0.09921624 0.015392979 0.40106276
-0.14611585 0.042939078 -0.45436978 0.4548571 -0.034932423 -0.08679711 0.5053054 0.07190703
0.13135257 -0.05395883 -0.027076034 -0.28691226 -0.4346498 0.027929477 0.004193463 -0.17294656
-0.31682214 0.2743751 -0.16230768 -0.16033596 0.011493872 -0.4146629 -0.20759413 -0.24273731
-0.11517444 0.1879388 -0.07609393 0.14675535 -0.44050583 -0.30689722 -0.44992244 -0.1493873
0.15169258 -0.3265874 -0.2011357 0.27383643 0.19954816 0.11435687 0.0869538 -0.3127899
-0.13303289 -0.19316232 -0.15338872 -0.11552264 -0.058523428 0.016385607 -0.4187231 0.22281896
0.4930354 -0.106903 -0.27222073 0.024398174 0.16150698 -0.0881462 -0.008875381 0.051573124
0.041261893 0.25172132 -0.32762992 0.05796511 -0.19099967 -0.044342715 0.05635939 -0.11123375
0.016701916 -0.38670313 0.37463152 0.16630444 -0.264398 0.31920102 0.12523192 -0.3400716
-0.15068974 -0.05659864 0.06710593 -0.44835657 0.21626769 -0.23841056 0.14269333 0.006626474
0.45013025 0.0003696872 0.06714674 -0.31817868 -0.10822103 -0.067528546 -0.04392573 -0.31476256
0.4071902 -0.15642926 0.37095824 -0.006958418 -0.3723626 -0.22434124 -0.16038558 0.25041735
0.08859419 0.0086213015 0.076562144 0.23985794 0.2948111 -0.0014926798 0.00053544395 0.10794856
-0.45716307 -0.059133917 0.40768626 -0.0805491 -0.10503273 0.37958747 0.09936636 -0.16635376
0.017399816 -0.12402925 -0.3029797 -0.27847707 0.19446915 0.2660525 0.50558597 0.067069806
-0.028722398 0.26859862 0.27980906 -0.3290148 -0.23435526 -0.3753335 0.19941378 -0.07745978
0.41854313 0.0015403412 0.26895237 0.09203916 0.33347827 -0.2146485 -0.13875881 -0.0028558562
0.3856463 -0.4407917 -0.09127198 0.524298 -0.28594428 0.06451619 -0.20501386 0.17451255
0.1783284 0.21889399 0.05812661 0.22495982 -0.28618956 -0.08369134 0.04328371 -0.20169084
0.037607465 0.092796326 0.22590008 -0.077122524 -0.21284726 -0.100652784 -0.23348704 -0.09882476
-0.052672382 -0.012230964 -0.5251163 0.11110001 0.47390404 0.09962049 0.061562486 0.5107068
-0.55823517 0.04436467 0.16301438 -0.08793921 0.1669359 -0.38375103 0.46812278 -0.09394766
0.1409674 -0.2836772 0.28275263 -0.4400186
00000000: 7593 2c3d 8187 e13e 6588 9ebe 4469 aebe
00000010: 5f0d 20be 48cc 38bd 9c49 44be 6fba 8dbd
00000020: 057f 593e 10ec b3be 08ab debe 9200 bebe
00000030: 8b54 8a3e e231 cb3d d532 7c3c 1958 cd3e
00000040: 659f 15be e3e0 2f3d 28a3 e8be 08e3 e83e
00000050: 4d15 0fbd afc2 b1bd b25b 013f fe43 933d
00000060: 4a81 063e ef03 5dbd 8fce ddbc 2ae6 92be
00000070: 6b8a debe 5ccc e43c 5169 893b e718 31be
00000080: 8336 a2be e57a 8c3e fc33 26be 1c2f 24be
00000090: cb50 3c3c b24e d4be 8e93 54be 2190 78be
000000a0: 94e0 ebbd 0773 403e 22d7 9bbd 0947 163e
000000b0: fb89 e1be a221 9dbe 3c5c e6be fcf8 18be
000000c0: 4d55 1b3e 7736 a7be 84f6 4dbe 4a34 8c3e
000000d0: 5a56 4c3e ef33 ea3d d514 b23d ff25 a0be
000000e0: c639 08be 58cc 45be ef11 1dbe 2297 ecbd
000000f0: 43b6 6fbd 1c3b 863c e062 d6be a72a 643e
00000100: 236f fc3e f6ef dabd 8460 8bbe aede c73c
00000110: 1662 253e ff85 b4bd 0c6a 11bc 573e 533d
00000120: 3b02 293d 9ee1 803e 1cbf a7be d36c 6d3d
00000130: 6b95 43be b5a0 35bd 1bd9 663d 85ce e3bd
00000140: 75d2 883c f4fd c5be b4cf bf3e b64b 2a3e
00000150: 2d5f 87be 516e a33e cc3c 003e dd1d aebe
00000160: 694e 1abe fad3 67bd d56e 893d fe8e e5be
00000170: 4775 5d3e e621 74be 331e 123e e522 d93b
00000180: 7977 e63e 93d2 c139 3b84 893d 51e8 a2be
00000190: fda2 ddbd 684c 8abd 77eb 33bd 8f28 a1be
000001a0: 3c7b d03e fe2e 20be 3dee bd3e 7103 e4bb
000001b0: 50a6 bebe b6b9 65be 1e3c 24be b436 803e
000001c0: df70 b53d 5c40 0d3c 9dcc 9c3d 529d 753e
000001d0: 7bf1 963e 06a6 c3ba 095d 0c3a 2214 dd3d
000001e0: 4711 eabe 6836 72bd 41bc d03e edf6 a4bd
000001f0: 661b d7bd 4a59 c23e 9780 cb3d a458 2abe
00000200: 0f8a 8e3c 0c03 febd 2820 9bbe 8c94 8ebe
00000210: ec22 473e 0938 883e 156e 013f e55b 893d
00000220: 3c4b ebbc c285 893e 2243 8f3e a174 a8be
00000230: d3fa 6fbe b62b c0be 2033 4c3e 3ca3 9ebd
00000240: 494b d63e 46e5 c93a 20b4 893e 077f bc3d
00000250: aabd aa3e d1cc 5bbe ca16 0ebe 5129 3bbb
00000260: 6f73 c53e 73af e1be ceec babd 6538 063f
00000270: 4a67 92be 1021 843d 27ef 51be 6bb3 323e
00000280: b89b 363e bf25 603e 2b16 6e3d de5b 663e
00000290: 7087 92be 5e66 abbd 424a 313d 0b88 4ebe
000002a0: 490a 1a3d 000c be3d 5a52 673e 6af2 9dbd
000002b0: a2f4 59be 0c23 cebd 3a17 6fbe a364 cabd
000002c0: ffbe 57bd 6264 48bc 066e 06bf 6788 e33d
000002d0: 8da3 f23e d405 cc3d f228 7c3d aebd 023f
000002e0: 80e8 0ebf bab7 353d 3eed 263e 7919 b4bd
000002f0: 3ff1 2a3e 047b c4be caad ef3e a167 c0bd
00000300: c259 103e 233e 91be f4c4 903e 1e4a e1be

decoder.layers.0.bias_ih_l0 f4 [28]
0.49919713 0.45418578 0.04938735 0.2116333 0.100833654 0.5342919 0.2947977 0.36090758
0.32689118 0.13862541 -0.0469238 0.24468508 0.02514771 0.11365103 -0.4391928 0.10949739
-0.36919993 -0.46092534 -0.41314226 0.40345567 -0.3701784 0.24384968 0.46917263 0.4095454
-0.11294684 0.15393223 0.010771181 0.009603957
00000000: c496 ff3e 0a8b e83e 644a 4a3d 66b6 583e
00000010: e081 ce3d 5bc7 083f b9ef 963e e1c8 b83e
00000020: 485e a73e d2f3 0d3e 2c33 40bd ba8e 7a3e
00000030: 9202 ce3c dfc1 e83d e1dd e0be 2b40 e03d
00000040: c607 bdbe 68fe ebbe 6287 d3be be91 ce3e
00000050: 0688 bdbe bbb3 793e 6537 f03e efaf d13e
00000060: ac50 e7bd 69a0 1d3e 9c79 303c ea59 1d3c

decoder.layers.0.bias_hh_l0 f4 [28]
0.50702894 0.2862997 -0.16612822 0.39753163 0.5547275 -0.10042247 0.2159143 0.34931618
0.2635078 -0.08907486 0.2956612 0.21959534 0.19991946 0.13006018 -0.16940771 0.11660922
-0.29206264 -0.26930976 -0.5033109 0.3817466 0.15052791 -0.15049843 0.383457 -0.1814146
0.5141589 0.2521104 0.5109565 0.12862717
00000000: a6cc 013f e095 923e 841d 2abe 4489 cb3e
00000010: 9f02 0e3f 4caa cdbd a318 5d3e 92d9 b23e
00000020: 7fea 863e e16c b6bd e860 973e 9add 603e
00000030: b0b7 4c3e 7f2e 053e 3779 2dbe d1d0 ee3d
00000040: 3c89 95be f8e2 89be fcd8 00bf 4a74 c33e
00000050: fd23 1a3e 431c 1abe 7a54 c43e c0c4 39be
00000060: eb9f 033f 9d14 813e 0cce 023f d7b6 033e

decoder.layers.1.weight_ih_l0 f4 [56, 7]
-0.24723393 0.2893326 -0.27849302 -0.12410429 -0.22123802 0.25714698 0.057202645 -0.14107364
0.118348286 -0.095024325 -0.085219406 -0.09955575 0.05441227 -0.0034555774 -0.022906337 0.31890258
-0.09592695 0.042619627 -0.09591792 0.28759754 0.029433578 -0.261465 -0.053789448 -0.429911
-0.36281756 -0.40145227 0.40810752 -0.16728593 -0.45848727 -0.04335879 -0.42121544 -0.25256807
-0.0770844 0.02229349 -0.36298963 -0.36645433 0.24510683 -0.22874996 -0.2507042 0.035512935
0.26742327 0.12034835 -0.04687726 -0.04247363 -0.18045494 -0.24089183 -0.26925233 0.4164212
-0.09112976 -0.3834704 0.011982852 -0.26509756 -0.4044216 -0.03280637 -0.042991545 0.02563491
-0.42059085 -0.04354006 0.058686033 0.024822904 0.09964379 0.07482336 -0.07500117 -0.070166245
0.19891497 -0.21612836 -0.45694658 -0.3953893 0.18515314 -0.08221211 -0.22669059 0.34949842
-0.28929016 -0.14890923 -0.4463969 0.37798348 -0.2784471 -0.27226874 0.16234237 -0.16396274
-0.0047834446 0.0056903698 0.160666 -0.037442878 -0.017055245 0.06387152 -0.07551832 -0.03859701
-0.18908368 0.09643887 -0.3424 -0.2636657 0.327483 -0.129792 -0.26015615 -0.18504713
0.2846224 -0.329576 -0.23079121 -0.09062498 0.076001294 -0.048199024 0.02628751 -0.09223491
-0.2726522 -0.2783893 0.3141102 -0.24809255 -0.339612 -0.041390672 0.11457436 -0.30822772
-0.07518476 0.19745521 0.08735954 0.0842337 -0.07356333 0.36757714 0.088660605 0.0013578484
0.11827242 -0.066934444 0.005263345 -0.11649454 0.379174 -0.054714642 -0.3360632 0.01882592
-0.28655708 -0.061214782 0.043764632 0.10704236 -0.34381393 -0.20362744 -0.07300201 0.072999835
0.031247845 -0.3707619 0.3678813 -0.17181917 -0.30084935 0.11738 -0.2903702 -0.14035426
-0.39702812 0.22960761 -0.30800918 -0.21288355 0.102803215 0.023235245 -0.28045797 -0.12663156
0.071599916 -0.1667059 -0.2988061 0.17733374 -0.043957926 -0.04481628 -0.27014273 0.30623782
-0.23562972 -0.036581285 -0.097188905 -0.15521735 0.0850595 -0.10256229 0.35099778 -0.13448018
-0.18447708 -0.06448686 -0.37023464 -0.32461068 -0.2153495 0.38039845 -0.33997035 -0.06272457
0.23927116 0.036991652 -0.37823844 0.015200898 -0.10575467 -0.2770959 -0.18484792 0.3910037
-0.020986095 -0.11306428 -0.20120803 -0.091158584 -0.21393196 0.0033329371 0.26380995 -0.36572617
-0.39031485 -0.1767151 0.35025328 0.057195466 0.033424236 0.077649094 -0.19764893 -0.112884745
-0.13984945 -0.052200947 -0.022704247 0.013054618 0.22619578 -0.3058242 -0.016051345 0.032476306
0.26514477 0.02383273 -0.07183019 -0.07633462 0.16840705 0.20729467 0.18695483 -0.3509202
0.036909916 -0.089554735 0.26189467 -0.14471272 0.01469007 -0.39855415 0.25379384 -0.112517536
0.002873649 0.31464484 -0.25164613 -0.27775165 0.075922586 0.08004998 0.07792814 -0.3228675
0.10414873 -0.29648295 -0.35902146 -0.030781846 0.308449 -0.34359705 0.07599837 0.22880112
0.040279083 -0.04863765 -0.18729751 -0.030164035 -0.09164891 0.25656256 -0.36304125 -0.08217904
-0.0024247174 0.4444139 -0.10542836 0.318169 0.28442955 -0.26360917 0.20900995 0.111886196
00000000: e42a 7dbe 6723 943e a396 8ebe 642a febd
00000010: 388c 62be c5a8 833e 524d 6a3d 9c75 10be
00000020: 9660 f23d 1d9c c2bd 8387 aebd e3e3 cbbd
00000030: 67df 5e3d f876 62bb 12a6 bbbc 3347 a33e
00000040: 5975 c4bd eb91 2e3d 9d70 c4bd fc3f 933e
00000050: b01e f13c bede 85be 5352 5cbd 4b1d dcbe
00000060: 39c3 b9be 278b cdbe 78f3 d03e 014d 2bbe
00000070: d8be eabe fd98 31bd 8da9 d7be 9a50 81be
00000080: 6dde 9dbd d6a0 b63c c7d9 b9be e79f bbbe
00000090: 49fd 7a3e 6e3d 6abe 4d5c 80be 0376 113d
000000a0: b4eb 883e 3279 f63d 5f02 40bd d4f8 2dbd
000000b0: 2ec9 38be 59ac 76be 71db 89be 2935 d53e
000000c0: 3da2 babd 3b56 c4be b953 443c deba 87be
000000d0: 5910 cfbe f95f 06bd e717 30bd 4e00 d23c
000000e0: af57 d7be 1057 32bd c460 703d 6759 cb3c
000000f0: 0b12 cc3d fd3c 993d 379a 99bd 52b3 8fbd
00000100: 5eb0 4b3e c150 5dbe e7f4 e9be 7770 cabe
00000110: c998 3d3e d35e a8bd 9421 68be 75f1 b23e
00000120: d71d 94be a97b 18be 228e e4be 0d87 c13e
00000130: 9e90 8ebe cf66 8bbe 143d 263e d9e5 27be
00000140: 71be 9cbb 4876 ba3b a185 243e b45d 19bd
00000150: 71b7 8bbc 12cf 823d 59a9 9abd e617 1ebd
00000160: 279f 41be be81 c53d 0e4f afbe 31ff 86be
00000170: daab a73e 32e8 04be 3033 85be ff7c 3dbe
00000180: 07ba 913e 2fbe a8be 8854 6cbe 9799 b9bd
00000190: 91a6 9b3d 576c 45bd e758 d73c a8e5 bcbd
000001a0: 1299 8bbe 0b89 8ebe 0dd3 a03e f90b 7ebe
000001b0: a0e1 adbe 4489 29bd f6a5 ea3d 06d0 9dbe
000001c0: 78fa 99bd b331 4a3e 8fe9 b23d b882 ac3d
000001d0: 5fa8 96bd 1233 bc3e b193 b53d d5f9 b13a
000001e0: cf38 f23d ed14 89bd 2378 ac3b b094 eebd
000001f0: 1823 c23e 761c 60bd 7a10 acbe d138 9a3c
00000200: 9cb7 92be 5abc 7abd 8b42 333d 0639 db3d
00000210: 6108 b0be b683 50be 1482 95bd f080 953d
00000220: 7bfb ff3c 81d4 bdbe f05a bc3e 5df1 2fbe
00000230: ed08 9abe ed64 f03d 67ab 94be 07b9 0fbe
00000240: 4547 cbbe 421e 6b3e 61b3 9dbe 25fe 59be
00000250: 7e8a d23d d757 be3c 3098 8fbe b4ab 01be
00000260: faa2 923d f4b4 2abe 1dfd 98be fa96 353e
00000270: 3a0d 34bd 4791 37bd 2650 8abe 34cb 9c3e
00000280: eb48 71be 42d6 15bd fa0a c7bd 4cf1 1ebe
00000290: ad33 ae3d 2e0c d2bd fbb5 b33e 2cb5 09be
000002a0: 8fe7 3cbe b011 84bd 658f bdbe 5f33 a6be
000002b0: 9484 5cbe 96c3 c23e 9810 aebe bd75 80bd
000002c0: 8003 753e 8f84 173d 78a8 c1be 300d 793c
000002d0: e895 d8bd 84df 8dbe c648 3dbe a331 c83e
000002e0: 08eb abbc 3f8e e7bd 7a09 4ebe 5ab1 babd
000002f0: fb10 5bbe 686d 5a3b 1912 873e 7640 bbbe
00000300: 59d7 c7be cef4 34be 6654 b33e cb45 6a3d
00000310: dae7 083d 7d06 9f3d 7b64 4abe 1e30 e7bd
00000320: b234 0fbe a9d0 55bd 42fe b9bc 09e3 553c
00000330: de9f 673e fd94 9cbe 1c7e 83bc e005 053d
00000340: 0ec1 873e db3c c33c b51b 93bd 5355 9cbd
00000350: e672 2c3e 0e45 543e 1671 3f3e d0ab b3be
00000360: da2e 173d 7968 b7bd 0f17 863e 922f 14be
00000370: 9fae 703c 4a0f ccbe 44f1 813e 986f e6bd
00000380: d453 3c3b 2119 a13e c3d7 80be 7735 8ebe
00000390: 4d7d 9b3d 3ef1 a33d ca98 9f3d e44e a5be
000003a0: ee4b d53d 9dcc 97be a9d1 b7be 362a fcbc
000003b0: 07ed 9d3e f4eb afbe 09a5 9b3d d74a 6a3e
000003c0: aefb 243d 4638 47bd ebca 3fbe 911a f7bc
000003d0: 6cb2 bbbd 2b5c 833e 8be0 b9be 7c4d a8bd
000003e0: 02e8 1ebb 388a e33e d3ea d7bd 0ce7 a23e
000003f0: c0a0 913e c8f7 86be b406 563e 9724 e53d
